trained_NN_surrogate_and_optim_in_loop/models_storageonly/nn_acc_2percent.pt (torch, 98092 bytes, 17 tensors)

fc1.weight f4 [128, 6]
0	0xbe3233f1	-0.17402627
1	0x3d7844f0	0.06061262
2	0xbd1c94a0	-0.038227677
3	0x3e55b051	0.2086804
4	0xbc9ff050	-0.01952377
5	0x3eb93ab3	0.36177596
6	0x3dfdd440	0.12393999
7	0x3e324b08	0.17411435
8	0x3b3be170	0.0028668307
9	0x3e8aed4e	0.27134174
10	0xbcc4c5f1	-0.024020167
11	0xbc264adf	-0.010149687
12	0xbdee6c71	-0.11641777
13	0xbaa01a4c	-0.0012214868
14	0x3c85a385	0.016313324
15	0x3d50f5fc	0.05101584
16	0xbda5a566	-0.08088188
17	0xbdbb0bf1	-0.09133137
18	0xbda600ed	-0.08105645
19	0xbcb6665d	-0.022265607
20	0xbd922bbc	-0.07137248
21	0x3bc4ab29	0.006001849
22	0xbd213d21	-0.039364938
23	0x3c18bf6c	0.009322982
24	0xbe49efb9	-0.19720353
25	0xbe04c512	-0.12965801
26	0x3d6b43b0	0.0574376
27	0xbd9db397	-0.0770027
28	0xbdc05897	-0.09391897
29	0xbc9d1deb	-0.019179305
30	0xbdc6bf34	-0.09704438
31	0x3c8af717	0.016963525
32	0x3da6ece0	0.08150649
33	0xbcef2c1d	-0.02919584
34	0xbd45cbea	-0.04829017
35	0xbe2763b6	-0.1634663
36	0xbc6e2156	-0.014534315
37	0x3dd12a77	0.10213178
38	0xbdcf990d	-0.10136614
39	0x3e58e10a	0.21179596
40	0x3b3aed5d	0.0028522827
41	0x3d03690e	0.03208261
42	0xbd0018a8	-0.031273514
43	0xbe2c8dc4	-0.16850954
44	0x3d8a5b5a	0.06755705
45	0xbd237d9b	-0.03991471
46	0xbc9252c6	-0.017861735
47	0xbd562d55	-0.052289326
48	0x3e0412b8	0.12897766
49	0x3d3880eb	0.04504482
50	0x3e736d9e	0.23772284
51	0xbd6876cb	-0.056753915
52	0xbf89a4f1	-1.0753461
53	0xbe0d7a31	-0.13816144
54	0xbd9f38ca	-0.077745035
55	0x3f02f6fc	0.5115812
56	0x3dd2634e	0.10272847
57	0x3e279d4c	0.16368598
58	0xbd9b4de4	-0.07583216
59	0xbd5129d2	-0.051065274
60	0xbea6d08e	-0.3258099
61	0x3c8d8d73	0.017279362
62	0x3e2b986f	0.16757368
63	0x3cab8c5d	0.020940954
64	0xbe4a5dcc	-0.19762343
65	0xbe52851b	-0.20558588
66	0xbde93642	-0.11387302
67	0x3e601e4a	0.21886554
68	0x3daf4d5e	0.085596785
69	0x3e8c89a8	0.27448773
70	0x3df53284	0.11972526
71	0xbc53c84e	-0.012926174
72	0xbdb9d0c2	-0.090730205
73	0xbc4a8755	-0.012361367
74	0x3e08393c	0.13303083
75	0xbe78fef6	-0.2431601
76	0x3bf4a42c	0.00746586
77	0xbd825763	-0.06364324
78	0x3db2a36f	0.08722579
79	0xbf1a7bf5	-0.60345393
80	0x3dcbead6	0.09956901
81	0xbe5aa7e1	-0.21353103
82	0x3e9864c6	0.29764384
83	0xbeaf7cfd	-0.34275046
84	0xbdb61830	-0.08891332
85	0x3da88375	0.082281984
86	0x3e4a26f7	0.19741426
87	0xbdb2c2ca	-0.08728559
88	0x3c79b618	0.015241168
89	0xbdd006f6	-0.10157578
90	0x3aafaa77	0.0013402243
91	0xbd1d398b	-0.038384955
92	0xbdecfe27	-0.11571913
93	0xbc9a7beb	-0.018857917
94	0xbdb2ce87	-0.08730798
95	0xbbed7dcc	-0.007247662
96	0x3e0d8724	0.13821083
97	0x3e8648e5	0.2622749
98	0xbd721e4e	-0.059110932
99	0x3df76573	0.12079897
100	0xbc9c9ba9	-0.019117193
101	0xbd8f9ed3	-0.07012715
102	0xbd44b428	-0.048023373
103	0xbe82f64d	-0.25578538
104	0xbd0e7cd6	-0.03478702
105	0xbc8fc82c	-0.017551504
106	0xbdbeb9dc	-0.093127936
107	0xbd9768f7	-0.07393067
108	0xbe95247b	-0.29129395
109	0xbe8e9c7c	-0.27853763
110	0x3decb28a	0.11557491
111	0x3da0979e	0.07841419
112	0xbe6d271b	-0.23159449
113	0x3f01c73b	0.50694627
114	0x3cd46813	0.025928533
115	0xbc5354de	-0.012898652
116	0xbddd806d	-0.10815511
117	0xbe067aa5	-0.13132723
118	0x3dd98b57	0.1062228
119	0xbe0f8e76	-0.14019188
120	0xbdcaa57c	-0.09894845
121	0xbf124c93	-0.57148093
122	0x3e5f47e2	0.21804765
123	0x3e0a7aee	0.13523456
124	0x3d9b1b39	0.07573552
125	0xbe0e9b2c	-0.13926381
126	0xbe396985	-0.18106659
127	0xbe1006d0	-0.14065099
128	0xbe72533a	-0.23664561
129	0x3d9d19f0	0.07670963
130	0x3e98346d	0.29727498
131	0xbf3066ba	-0.6890675
132	0xbcd08f0e	-0.025458839
133	0x3e48ed5c	0.19621795
134	0xbf09e05c	-0.5385797
135	0x3e8410f4	0.25794184
136	0xbdd5cd9f	-0.1043961
137	0xbd91f820	-0.07127404
138	0xbcc4281c	-0.023944907
139	0x3f5ced9a	0.8630005
140	0xbc904edf	-0.017615734
141	0x3db6fbef	0.08934771
142	0x3d2579e1	0.040399436
143	0xbdff4042	-0.12463428
144	0xbe23cacc	-0.1599533
145	0xbe09189f	-0.13388298
146	0xbddac5ea	-0.1068228
147	0xbcfa5d7b	-0.030562153
148	0x3dfaeef1	0.12252606
149	0xbe6a736d	-0.22895594
150	0x3adf76d9	0.0017048969
151	0x3d2b57e4	0.041831866
152	0x3df74d4b	0.12075289
153	0xbd5fb4f2	-0.054615922
154	0xbe437cba	-0.19090548
155	0xbeb7ee04	-0.3592378
156	0x3e2be051	0.16784789
157	0x3f0578a7	0.52137226
158	0x3e45e07f	0.1932392
159	0xbe7a8a79	-0.24466886
160	0x3da74e0a	0.08169182
161	0xbecfccc2	-0.40585905
162	0x3d16a658	0.03677973
163	0x3e566d36	0.20940098
164	0xbe6a6389	-0.22889532
165	0x3eaa4e8b	0.3326305
166	0xbc2a097b	-0.010378237
167	0xbdbf4b4b	-0.09340533
168	0xbe25fde5	-0.16210134
169	0xbe5c7b3a	-0.21531382
170	0xbab227d2	-0.001359219
171	0x3e2194c2	0.15779403
172	0x3df2ecce	0.11861573
173	0xbdca1beb	-0.09868606
174	0xbbcca203	-0.0062448992
175	0x3e8b53ba	0.27212316
176	0x3dbe7034	0.09298745
177	0x3d73c7e3	0.0595168
178	0x3d8b17f8	0.06791681
179	0x3d8986aa	0.06715138
180	0x3db5c59c	0.088755816
181	0xbf4f4ecc	-0.8097961
182	0xbe71a39f	-0.23597573
183	0x3d86180f	0.065475576
184	0x3eb1496c	0.3462633
185	0x3e2aff77	0.16699015
186	0x3e83d532	0.25748593
187	0xbf822461	-1.0167352
188	0x3ed53daf	0.41648623
189	0xbca554e9	-0.02018209
190	0xbee39758	-0.44451404
191	0xbf61c817	-0.8819594
192	0xbdc73663	-0.0972717
193	0xbba56edc	-0.005048616
194	0xba302198	-0.0006718873
195	0x3ddb00c3	0.10693505
196	0xbca400e1	-0.02001995
197	0x3db3bec3	0.08776619
198	0xbd50a215	-0.050935823
199	0x3d3f61fc	0.046724305
200	0xbe90f772	-0.28313786
201	0xbe08207d	-0.13293643
202	0x3b9148e9	0.0044337404
203	0xbe42b9cc	-0.19016188
204	0x3eafdd43	0.34348497
205	0xbf69203f	-0.9106483
206	0xbdeb51e8	-0.11490232
207	0x3e3157f3	0.17318706
208	0xbe87f767	-0.2655594
209	0xbe434ed6	-0.19073042
210	0x3ecc7b96	0.3993804
211	0xbf025e8b	-0.5092551
212	0xbead1c2e	-0.33810562
213	0xbd0cc266	-0.03436508
214	0xbf006324	-0.50151277
215	0x3e716c27	0.23576413
216	0xbe028250	-0.12745023
217	0xbe40e3be	-0.18836877
218	0xbd6fa917	-0.058510866
219	0x3d7478b0	0.05968541
220	0xbc93ee7e	-0.018058058
221	0xbd1d09c3	-0.038339388
222	0x3d3044f3	0.043034505
223	0xbdf11442	-0.11771442
224	0x3d4a3f63	0.049376857
225	0xbe836a29	-0.2566693
226	0xb9a955ab	-0.0003229802
227	0xbdb2cfe3	-0.087310575
228	0xbe1db9cc	-0.15402907
229	0xbd50dcf6	-0.050991975
230	0xbdd1e902	-0.10249521
231	0xbac89e7f	-0.0015306025
232	0xbddfbd78	-0.1092481
233	0xbe9d819d	-0.3076295
234	0x3e1c6529	0.15272965
235	0x3e8f3f54	0.27978003
236	0x3ea388f9	0.3194044
237	0xbdc3a881	-0.09553624
238	0x3da6e21d	0.081485964
239	0x3dae0e8b	0.084988676
240	0x3e9c25b9	0.3049753
241	0xbeb769dd	-0.35822955
242	0xbe8bf93a	-0.27338582
243	0x3e59c422	0.21266225
244	0x3ebbecb6	0.36704034
245	0xbf8fb794	-1.1227899
246	0x3e2230ba	0.158389
247	0xbe64c210	-0.22339654
248	0x3d91ee7a	0.07125564
249	0xbe747a6c	-0.23874825
250	0x3c2fcd6f	0.0107301315
251	0x3d1a6bc4	0.03770043
252	0xbceb2fdd	-0.028709346
253	0x3a7b6dc4	0.00095912465
254	0x3d1fe68f	0.039038237
255	0xbde9c086	-0.11413674

fc1.bias f4 [128]
0	0xbe36749f	-0.17817925
1	0xbdc58280	-0.096440315
2	0xbc8dc93e	-0.017307874
3	0x00000000	0.0
4	0x00000000	0.0
5	0xbccd5a33	-0.025067424
6	0xbdaef4b3	-0.085427664
7	0x00000000	0.0
8	0x3e296023	0.1654058
9	0xbdf59b1b	-0.11992475
10	0xbd896d43	-0.06710293
11	0xbdeff1ca	-0.117160395
12	0xbc8807cf	-0.016605286
13	0xbcac7fa4	-0.021056958
14	0xbdf802ae	-0.12109886
15	0x00000000	0.0
16	0xbe0b9dd1	-0.13634421
17	0x00000000	0.0
18	0x3cb14a5d	0.021641904
19	0xbdb47f99	-0.088134
20	0x3dd6fac7	0.10497051
21	0x3ca14a32	0.0196887
22	0x3bcccd96	0.0062500937
23	0xbe2aa034	-0.16662675
24	0xbc6b1e46	-0.0143504795
25	0xbd5935b1	-0.05302972
26	0xbd66ccf5	-0.056347806
27	0xbd9ee710	-0.077589154
28	0xbe01f832	-0.12692335
29	0xbe4953cc	-0.19660872
30	0xbd620ccd	-0.05518799
31	0xbd0bf316	-0.03416737
32	0xbe3d65d4	-0.18495876
33	0xbc285694	-0.010274548
34	0x3df81c44	0.12114766
35	0x3c981a1a	0.018567134
36	0x00000000	0.0
37	0x00000000	0.0
38	0x00000000	0.0
39	0xbe88578d	-0.26629296
40	0xbdd7ff25	-0.10546712
41	0xbcae315b	-0.021263769
42	0x00000000	0.0
43	0xbc86d6a1	-0.016459765
44	0x3e3a5356	0.18195853
45	0x3d9ef2ce	0.07761155
46	0xbe25db3a	-0.1619691
47	0xbbaed8a3	-0.0053358837
48	0x3d2ca271	0.042147104
49	0x00000000	0.0
50	0xbdc69bbd	-0.096976735
51	0xbe2d70de	-0.16937587
52	0xbd347f33	-0.04406662
53	0x00000000	0.0
54	0xbe551a18	-0.20810735
55	0xbc6bf6d3	-0.014402109
56	0xbda7d028	-0.081939995
57	0xbd554062	-0.052063353
58	0xbd29ebf8	-0.041484803
59	0xbe27ec71	-0.16398789
60	0x00000000	0.0
61	0xbbf93038	-0.007604625
62	0x3e277a01	0.16355135
63	0xbe9787cc	-0.29595792
64	0xbdf54952	-0.11976875
65	0xbd0cd45e	-0.034382217
66	0xbdb3cfc5	-0.08779863
67	0xbe2e95ad	-0.17049284
68	0xbdd900d3	-0.1059586
69	0xbe0b9fae	-0.13635132
70	0xbe2cd851	-0.16879393
71	0xbdb0dd89	-0.086360045
72	0x00000000	0.0
73	0x00000000	0.0
74	0xbea9239a	-0.33034974
75	0xbe020ecc	-0.12700957
76	0xbdbfdd83	-0.09368422
77	0x3ccaecde	0.02477115
78	0xbd529515	-0.051411707
79	0xbde06686	-0.10957055
80	0x00000000	0.0
81	0xbd7be6fe	-0.06149959
82	0x00000000	0.0
83	0xbe05cdc8	-0.1306678
84	0xbc884303	-0.016633516
85	0xbbe10491	-0.0068669994
86	0xbde04bc9	-0.10951955
87	0x00000000	0.0
88	0xbdbbee60	-0.09176326
89	0xbd834fc4	-0.064116985
90	0x3d8b46c9	0.068006106
91	0xbe6602ac	-0.22461957
92	0xbe3b6108	-0.18298733
93	0xbcfbeee4	-0.03075356
94	0xbd59fa95	-0.05321749
95	0x3d73fdc9	0.0595682
96	0xbcf838d9	-0.030300545
97	0xbe89b766	-0.26897734
98	0xbe208730	-0.1567657
99	0xbeabf1c2	-0.33582884
100	0xbe307f21	-0.17235996
101	0xbd8b77f6	-0.0680999
102	0xbccee131	-0.025253864
103	0xbe3739c6	-0.17893133
104	0x3d15cc8c	0.036572024
105	0x3e5e7c96	0.21727213
106	0xbe83cd1d	-0.25742427
107	0xbe6be36a	-0.2303597
108	0xbdf1ecd3	-0.11812749
109	0x3b1202cf	0.0022279506
110	0x3bcbdf38	0.006221678
111	0xbe25893b	-0.1616563
112	0xbe08c024	-0.13354546
113	0xbe36c74d	-0.17849465
114	0xbbf3cba2	-0.0074400464
115	0xbcc045fa	-0.023470867
116	0x3d5008d7	0.05078968
117	0xbdf7f05f	-0.12106394
118	0xbdef2063	-0.11676099
119	0x3be7d576	0.007075007
120	0x00000000	0.0
121	0xbe4487b9	-0.19192399
122	0x3e045e4c	0.12926596
123	0xbc990ea5	-0.01868374
124	0xbe8cce82	-0.27501303
125	0x3ca3f326	0.020013403
126	0xbe569eab	-0.20958965
127	0xbd3afbc7	-0.04565027

fc2.weight f4 [64, 128]
0	0xbe18a4c9	-0.1490661
1	0xbe0cea2c	-0.13761204
2	0x3da822fe	0.08209799
3	0x3dd10b81	0.10207272
4	0xbde38a06	-0.1111031
5	0x3c18fcda	0.009337628
6	0xbe2acb31	-0.16679074
7	0xbd06cdf2	-0.03291125
8	0xbdc2a46f	-0.095040195
9	0x3dee58dc	0.11638042
10	0xbcb312f6	-0.021859627
11	0xbe174b69	-0.1477486
12	0x3d931a26	0.07182722
13	0xbd2522e2	-0.04031647
14	0xbd01c93f	-0.031686064
15	0xbbba3dbe	-0.00568363
16	0xbdcfbb8b	-0.10143193
17	0xbcb72776	-0.022357684
18	0x3d190f3b	0.03736804
19	0x3de9c729	0.1141494
20	0xbcf479b1	-0.029843183
21	0xbbffa18a	-0.0078012394
22	0xbcb1f97d	-0.02172541
23	0xbe07598e	-0.13217756
24	0xbce162fd	-0.027513022
25	0xbd92e993	-0.07173457
26	0xbd9fa991	-0.07796014
27	0xbe0e861a	-0.13918343
28	0xbb49bd4d	-0.0030782998
29	0xbd92ff79	-0.07177634
30	0xbe23d11c	-0.15997738
31	0x3d4900d7	0.049073067
32	0xbd45a33b	-0.04825137
33	0x3dba8793	0.0910789
34	0xbe0281e1	-0.12744857
35	0xbdeb0ea7	-0.11477404
36	0x3dd0ba22	0.10191752
37	0xbc3eeff5	-0.01165389
38	0x3d6196e3	0.055075537
39	0xbcdb08a2	-0.026737515
40	0x3d8e25e8	0.06940824
41	0xbd5c2278	-0.05374381
42	0x3e244285	0.16041
43	0x3d88f376	0.066870615
44	0xbd26badc	-0.040705547
45	0xbc15f70d	-0.00915314
46	0xbcba5d69	-0.02274962
47	0xbcde6de1	-0.027152004
48	0x3db83481	0.08994389
49	0xbd39e3f0	-0.045383394
50	0xbd741eed	-0.059599806
51	0x3d7553ee	0.059894495
52	0xbd590afa	-0.052988984
53	0xbe3bbf6e	-0.18334743
54	0xbd94ccf8	-0.07265657
55	0xbe45404e	-0.19262812
56	0xbdd55654	-0.104168564
57	0x3d975bea	0.07390578
58	0xbc4bd346	-0.012440508
59	0x3d0cb550	0.0343526
60	0x3d7aa12c	0.06118886
61	0x3cdd3595	0.027003089
62	0xbbf3058a	-0.007416432
63	0xbe07e059	-0.13269176
64	0xbe05077d	-0.12991138
65	0x3e2dfa32	0.16989973
66	0xbde7d41e	-0.11319755
67	0xbda4c9df	-0.08046316
68	0x39382a89	0.00017563453
69	0xbc94747b	-0.018121948
70	0xbdf55df5	-0.119808115
71	0x3e28e8c9	0.1649505
72	0x3d7e1ebe	0.062041037
73	0x3d520b3a	0.051280238
74	0x3d8eed75	0.06978885
75	0x3d2496bb	0.04018281
76	0x3c4832d8	0.012219153
77	0xbd078c9d	-0.033093084
78	0xbdb0d4c3	-0.08634331
79	0xbdb5d618	-0.08878726
80	0xbe22dc5c	-0.15904373
81	0xbd698b4a	-0.057017602
82	0xbd8c13e9	-0.06839735
83	0xbd9aac60	-0.07552409
84	0x3dabe19b	0.0839264
85	0x3dab395f	0.08360552
86	0xbd34ecd1	-0.04417116
87	0x3deab7ab	0.11460813
88	0x3d119b5a	0.035548545
89	0xbbd7ad6a	-0.006581952
90	0x3d174e5a	0.036939956
91	0x3e18c490	0.14918733
92	0xbc435f77	-0.011924616
93	0xbdd7d048	-0.10537773
94	0x3d8ef203	0.06979754
95	0xbe2355c6	-0.15950689
96	0xbe5c5fad	-0.21520872
97	0x3d8e0842	0.06935169
98	0xbd8af448	-0.06784874
99	0xbcc11cdd	-0.023573333
100	0xbca86aa7	-0.020558668
101	0x3d344c45	0.04401805
102	0xbe2094b1	-0.15681721
103	0xbe4b062d	-0.19826575
104	0x3d9b61d8	0.075870216
105	0xbe220c03	-0.15824895
106	0x3db4fe02	0.08837511
107	0xbb9ce404	-0.004787924
108	0xbe27d58a	-0.16390052
109	0xbe876ce3	-0.2645026
110	0xbd9fc0af	-0.07800423
111	0x3cb9d160	0.022682846
112	0xbcc555b5	-0.02408872
113	0x3ca4cd1a	0.020117331
114	0x38e544bc	0.00010932374
115	0xbcc6431a	-0.024201918
116	0xbc9975b2	-0.01873288
117	0x3de7bfb3	0.113158606
118	0x3c21aacc	0.009867381
119	0xbd58a5fd	-0.052892674
120	0x3d639000	0.05555725
121	0x3d104ccd	0.035229493
122	0xbe214d4d	-0.15752144
123	0xbca45ef6	-0.020064812
124	0x3d832e99	0.06405372
125	0xbd27443a	-0.04083655
126	0xba7346b3	-0.00092802494
127	0xba86ac21	-0.0010274687
128	0xbcb5421c	-0.02212625
129	0x3e12172f	0.14266656
130	0x3d277621	0.04088414
131	0x3d1ce79f	0.03830683
132	0x3a51dad6	0.00080053264
133	0x3ceb643b	0.028734317
134	0x3dfffa02	0.12498857
135	0xbe23d9c6	-0.16001043
136	0x3cbc7320	0.023004115
137	0x3d802fd2	0.06259121
138	0x3c337424	0.010952983
139	0x3e5ad55c	0.21370453
140	0x3b8a4e32	0.0042207474
141	0xbe179605	-0.14803322
142	0x3e099d1f	0.13438843
143	0x3c563990	0.013075247
144	0xbd8c932e	-0.0686401
145	0x3e3450a0	0.17608881
146	0x3dcef015	0.10104386
147	0x3c76f0d0	0.015072063
148	0xbcfb44ed	-0.030672515
149	0x3ced2d5f	0.028952299
150	0xbcebf6a0	-0.028804123
151	0x3ddcd9b9	0.10783715
152	0xbd93aeeb	-0.07211097
153	0x3d2dd988	0.042443782
154	0xbd7332c6	-0.059374593
155	0x3e11bcf0	0.1423223
156	0x3c9e1108	0.01929523
157	0xbd858e44	-0.06521276
158	0x3ba52212	0.005039462
159	0xbea4bffd	-0.32177725
160	0x3dc0e75a	0.09419127
161	0xbd607a2f	-0.054804023
162	0xbe60d627	-0.21956693
163	0xbe2a1e16	-0.1661304
164	0xbdb4e604	-0.088329345
165	0xbdb99e43	-0.09063389
166	0xbdb3b7f4	-0.08775321
167	0x3e3fbdd6	0.1872476
168	0xbe83183e	-0.25604433
169	0x3d655bab	0.055995625
170	0xbd9e72ad	-0.077367164
171	0xbe2ae195	-0.16687615
172	0xbdd85a43	-0.10564091
173	0xbd875049	-0.0660711
174	0x3cb94f63	0.022620862
175	0xbcaeaf39	-0.021323787
176	0xbddd886d	-0.10817037
177	0x3d8ddb8c	0.06926641
178	0x3dcc23b8	0.0996775
179	0x3e26f6b1	0.16305043
180	0x3e59524e	0.21222803
181	0x3d84fafd	0.06493185
182	0x3cc0161b	0.02344804
183	0x3da33537	0.07969134
184	0xbc149eb8	-0.009071045
185	0x3e82c2e3	0.25539312
186	0xbebf3ff2	-0.37353474
187	0xbd502e81	-0.0508256
188	0xbd8e8b9f	-0.06960224
189	0xbe357d24	-0.17723519
190	0xbdcf21a9	-0.10113842
191	0x3e6bb0e8	0.23016703
192	0x3c4f68f1	0.012659297
193	0xbe560d24	-0.2090345
194	0x3dc31a50	0.09526503
195	0xbea836c1	-0.32854274
196	0x3d6aee74	0.057356313
197	0x3e17a726	0.14809856
198	0x3db25b6b	0.08708843
199	0x3eaa5f1d	0.3327569
200	0x3c4a2979	0.012338989
201	0x3d29b105	0.041428585
202	0x3e8ad150	0.27112818
203	0xbcb82d17	-0.022482438
204	0xbdbe1a78	-0.09282392
205	0x3d92b126	0.07162695
206	0x3e3d0916	0.18460497
207	0xbe55d1e9	-0.20880856
208	0xbd2c173a	-0.042014338
209	0x3e5c37cb	0.21505658
210	0xbd8b9155	-0.06814829
211	0x3d119087	0.035538223
212	0xbe2b75c8	-0.16744149
213	0x3dacdb06	0.08440213
214	0x3e3c77d6	0.18405089
215	0x3ceb2f53	0.02870909
216	0x3d25a145	0.040437
217	0xbdf58c7e	-0.119896874
218	0x3e5ce37b	0.21571152
219	0xbc0c362f	-0.00855784
220	0x3bd9fe7d	0.006652652
221	0x3dc851b5	0.097812094
222	0x3cf0eeb3	0.029410696
223	0xbdbe8a75	-0.09303752
224	0xbbcbb46d	-0.006216577
225	0xbdd6042b	-0.10450014
226	0xbeb0edc4	-0.345564
227	0xbb9de776	-0.004818852
228	0x3df51663	0.119671606
229	0xbe8e3fd2	-0.27783066
230	0xbdb29542	-0.08719875
231	0x3c3608f9	0.011110538
232	0xbd317eda	-0.043333866
233	0xbe44ad98	-0.19206846
234	0xbd9689c6	-0.07350497
235	0x3e7088bb	0.23489659
236	0x3dc75fdc	0.097350806
237	0xbd6b7718	-0.057486624
238	0xbe05288d	-0.1300375
239	0x3d0818fc	0.033226952
240	0x3df6edd3	0.1205708
241	0xbd66b788	-0.056327373
242	0xbda61f74	-0.08111468
243	0xbd6e16de	-0.058127277
244	0xbcd6170a	-0.026134033
245	0xbdf8d3b2	-0.12149753
246	0x3e255012	0.16143826
247	0x3d997bb2	0.07494296
248	0x3e5e5782	0.21713069
249	0x3d252a41	0.0403235
250	0x3ddf5cea	0.10906394
251	0x3e3fc53b	0.18727581
252	0x3e148bc5	0.14506443
253	0xbe01fa13	-0.12693052
254	0x3e148c8b	0.14506738
255	0xbe1ed55b	-0.15511076

fc2.bias f4 [64]
0	0xbd33a30e	-0.043856673
1	0xbd62e08e	-0.055389933
2	0xbc832d1f	-0.016012726
3	0xbd32ba8b	-0.043634932
4	0xbd403416	-0.046924673
5	0xbd2ffafa	-0.04296396
6	0xbeac7c07	-0.33688375
7	0xbd7208d9	-0.05909047
8	0xbd487f0c	-0.048949286
9	0xbd4b8db6	-0.049695693
10	0x3ddb61f2	0.10712041
11	0xbcabc247	-0.020966662
12	0x00000000	0.0
13	0xbd7c37c0	-0.061576605
14	0x3e3f659e	0.18691108
15	0xbdf0f376	-0.117651865
16	0xbd1df594	-0.03856428
17	0xbcdd5c70	-0.027021617
18	0xbcceb74e	-0.02523389
19	0xbd44be97	-0.048033323
20	0xbd979355	-0.07401148
21	0xbe19741d	-0.149857
22	0xbd232f95	-0.0398403
23	0xbd3e68c2	-0.046486624
24	0xbc32e904	-0.010919813
25	0xbc790aa4	-0.015200291
26	0xbda2ead6	-0.07954948
27	0xbd0213fc	-0.03175734
28	0xbd55c4bb	-0.05218957
29	0xbc718613	-0.014741438
30	0xbd133bb3	-0.035945605
31	0xbd8c5b4f	-0.06853353
32	0xbd3e7a52	-0.046503372
33	0xbb6963a2	-0.0035612364
34	0xbd899a84	-0.06718925
35	0xbd85dda2	-0.06536414
36	0x3ddbfb03	0.10741236
37	0x00000000	0.0
38	0xbe731681	-0.23739053
39	0xbd284e79	-0.041090462
40	0x00000000	0.0
41	0xbd130072	-0.035889097
42	0xbd30a851	-0.04312927
43	0xbd5a58c4	-0.05330731
44	0xbd2cf068	-0.042221457
45	0xbc831b8a	-0.016004343
46	0xbe39e6c0	-0.1815443
47	0xbd3e3bde	-0.046443813
48	0xbd788927	-0.060677674
49	0xbbc58ac1	-0.0060285036
50	0xbd19e55a	-0.037572242
51	0xbdab8c5a	-0.08376379
52	0xbeb72db5	-0.3577706
53	0xbd268cdd	-0.04066168
54	0x3d03a6cd	0.032141495
55	0xbcff614b	-0.031174323
56	0xbd1d5853	-0.03841431
57	0xbe8efc39	-0.27926806
58	0xbda62f98	-0.081145465
59	0xbded558e	-0.11588584
60	0xbcb46c48	-0.022024289
61	0xbc9dbd66	-0.019255351
62	0x3b9dfa3c	0.00482109
63	0xbd01b7af	-0.031669315

fc3.weight f4 [64, 64]
0	0x3c08ba3c	0.008345183
1	0xbd536a64	-0.051615134
2	0xbbc87293	-0.006117174
3	0xbe501039	-0.20318688
4	0x3e0e4eb7	0.13897215
5	0xbbd27aad	-0.0064233155
6	0x3f0154b2	0.5051986
7	0xbe5774c4	-0.21040636
8	0x3d8a7fce	0.06762658
9	0xbdaa1033	-0.08303871
10	0x3dacbfa6	0.084349915
11	0xbdd1dec9	-0.10247571
12	0x3e4c13a3	0.19929366
13	0x3d94d7de	0.07267736
14	0x3e324fef	0.17413305
15	0x3f1d6a17	0.61490005
16	0xbd91ce26	-0.07119398
17	0x3c0b7c2c	0.008513492
18	0xbc4f4fbf	-0.01265329
19	0xbd5776a7	-0.05260339
20	0x3e5443c4	0.20728976
21	0xbe05a858	-0.130525
22	0x3d4dd388	0.05025056
23	0x3ea99a6e	0.33125633
24	0xbd3738fa	-0.04473207
25	0x3cf15046	0.029457223
26	0xbd830c8f	-0.0639888
27	0x3d6579dd	0.05602442
28	0xbb8b4c7c	-0.004251061
29	0xbebc4aca	-0.3677581
30	0xbc9cbbdf	-0.019132553
31	0xbd2dd76f	-0.04244178
32	0xbe4fabf6	-0.20280442
33	0x3d47919f	0.04872286
34	0xbedbc72e	-0.429254
35	0xbe2b0e6b	-0.16704719
36	0x3f11aff5	0.56909114
37	0x3de2f192	0.11081232
38	0x3eac88d0	0.3369813
39	0x3d71f72e	0.05907362
40	0xbe44e3a1	-0.19227459
41	0x3d4b7531	0.04967231
42	0xbc90050d	-0.017580533
43	0x3ddc5aea	0.10759528
44	0x3e0d701b	0.13812296
45	0x3e648e75	0.22319968
46	0x3cb9b653	0.022669947
47	0x3e12642e	0.14296028
48	0xbdee96b0	-0.11649835
49	0xbe2ec4ef	-0.17067312
50	0xbc7b1896	-0.015325686
51	0x3d1276b5	0.03575774
52	0x3e3df583	0.18550687
53	0x3d6c0b1b	0.05762778
54	0xbc30122f	-0.010746523
55	0x3c708062	0.014679046
56	0x3e39a619	0.18129767
57	0xbe34679f	-0.17617653
58	0x3e0673ac	0.13130063
59	0x3d4539a5	0.048150677
60	0x3e134bf9	0.1438445
61	0x3d9319e2	0.07182671
62	0x3deede50	0.116634965
63	0x3e5d8371	0.21632172
64	0x3d7d84e8	0.061894327
65	0x3e8fbe24	0.28074753
66	0x3e83767c	0.25676334
67	0xbdd76cdb	-0.105188094
68	0xbe7d1492	-0.24714878
69	0x3e646288	0.22303212
70	0x3e8eae77	0.2786748
71	0x3cac5f59	0.021041559
72	0x3d958992	0.0730163
73	0x3daba33c	0.08380744
74	0xbdd08266	-0.101811215
75	0xbe4cf469	-0.2001511
76	0x3e30bf82	0.17260554
77	0x3e8085fe	0.25102228
78	0xbecd05f9	-0.4004362
79	0xbe9b939f	-0.30386063
80	0x3e96f394	0.2948271
81	0xbd863335	-0.06552736
82	0xbeadb68a	-0.3392833
83	0x3ae85786	0.0017726279
84	0x3d26076d	0.040534426
85	0xbdceabc2	-0.10091354
86	0xbe19c711	-0.15017344
87	0xbc60142d	-0.013676685
88	0x3d3c45aa	0.045964874
89	0x3d76c526	0.06024661
90	0x3dd9f443	0.10642292
91	0xbd215343	-0.039386045
92	0x3cd1aa71	0.025593968
93	0x3e330123	0.17480902
94	0x3c51dc11	0.012808816
95	0x3de6ea1c	0.112751216
96	0x3dc28f12	0.09499945
97	0x3dd8a43e	0.10578202
98	0xbc01515d	-0.007892934
99	0x3d1cb216	0.038255773
100	0xbe12f8f0	-0.14352775
101	0x3e0b6457	0.13612495
102	0x3e567003	0.20941167
103	0xbd416684	-0.047216907
104	0xbccc3373	-0.024926877
105	0xbe353d5e	-0.17699191
106	0xbca88809	-0.02057268
107	0xbe834773	-0.2564045
108	0x3dc362e0	0.09540343
109	0xbdcec9b1	-0.10097063
110	0xbca38b47	-0.019963874
111	0xbc04dfef	-0.008110031
112	0xbd7c229c	-0.061556444
113	0x3e36f64e	0.17867395
114	0xbcda2c60	-0.026632488
115	0x3dbea5ec	0.09308991
116	0x3e82538f	0.25454375
117	0x3d391800	0.045188904
118	0xbeb16235	-0.3464524
119	0xbe279d71	-0.16368653
120	0xbd89321a	-0.06699009
121	0x3e3c8cb3	0.18413047
122	0x3ca3f385	0.02001358
123	0x3e21c2a5	0.15796907
124	0x3e3f0e78	0.18657863
125	0x3e25b16d	0.16180964
126	0xbec586a8	-0.38579297
127	0xbdcf1b2f	-0.10112607
128	0x3c5a7fde	0.01333615
129	0xbe189f43	-0.14904504
130	0x3d2497d2	0.04018385
131	0xbc57e7bd	-0.013177809
132	0xbddd8881	-0.10817052
133	0x3da8ccad	0.08242164
134	0xbe7847d2	-0.24246147
135	0xbdb857a2	-0.0900109
136	0xbd44b656	-0.04802545
137	0x3dc2df91	0.09515298
138	0x3d8b78a0	0.06810117
139	0xbccf65a6	-0.025317024
140	0x3de26039	0.11053509
141	0xbd97656d	-0.07392392
142	0xbd27235b	-0.040805202
143	0x3e0de64a	0.1385738
144	0xbe19b6a3	-0.15011077
145	0xbdf6e698	-0.12055701
146	0xbd0233c3	-0.031787645
147	0xbe4b54e6	-0.19856605
148	0xbe89cc73	-0.26913795
149	0x3d01e0ee	0.03170865
150	0xbb8832a7	-0.004156429
151	0xbc070eb3	-0.008243251
152	0x3d13ea7b	0.03611229
153	0xbc5e4866	-0.013567066
154	0x3e23dd78	0.16002452
155	0x3c3b5c68	0.011435606
156	0x3d44bb08	0.04802993
157	0x3d8c16cd	0.068402864
158	0xbde4b702	-0.111677185
159	0x3eb03f56	0.3442332
160	0xbe62c93e	-0.2214708
161	0xbd894a91	-0.067036755
162	0x3de6695e	0.11250566
163	0xbda02b40	-0.07820749
164	0x3dd5ad49	0.10433442
165	0x3dc91f00	0.09820366
166	0x3d127dee	0.035764627
167	0x3d83dee9	0.06439001
168	0xbd746a54	-0.059671715
169	0xbd1ffc99	-0.039059255
170	0xbcfe55ff	-0.031046866
171	0x3dc11eb0	0.09429681
172	0xbe2ad23d	-0.16681762
173	0xbc10b1f8	-0.008831494
174	0xbd740733	-0.05957718
175	0xbcc971b6	-0.024590354
176	0xbdf8e75a	-0.12153502
177	0xbe3ab86e	-0.18234417
178	0xbe141c69	-0.14463963
179	0x3d819bd9	0.06328554
180	0xbd299fcb	-0.041412156
181	0x3dda5cb6	0.106622145
182	0x3f032628	0.51230097
183	0xbc33fddb	-0.010985817
184	0x3ccb2c70	0.024801463
185	0xbd4b7c37	-0.049679007
186	0xbe4148e7	-0.18875466
187	0xbe1e84c7	-0.15480338
188	0xbc00cdc1	-0.007861556
189	0xbd5b84ea	-0.053593554
190	0x3e9f1336	0.31069344
191	0x3c23369a	0.0099617485
192	0xbe93d2bc	-0.28871715
193	0x3e1bcdfd	0.15215297
194	0xbe7ed0e7	-0.24884377
195	0x3dbe97f9	0.0930633
196	0xbe108c09	-0.14115919
197	0xbe18192f	-0.14853357
198	0x3dbf9f18	0.093565166
199	0xbd783daa	-0.060605682
200	0x3cff0a55	0.031132856
201	0x3cfdbaee	0.030972924
202	0x3ef61732	0.48064572
203	0x3d5d5864	0.054039374
204	0x3d2d9879	0.042381737
205	0xbb134267	-0.0022469999
206	0xbe35bee1	-0.17748596
207	0xbeb2e556	-0.34940594
208	0x3dd1f29d	0.10251353
209	0x3c57f706	0.013181454
210	0xbc8dbb1b	-0.017301133
211	0x3e219a1b	0.15781443
212	0x3dfa2913	0.122148655
213	0x3dc70863	0.097183965
214	0x3e903c77	0.2817113
215	0x3e8d90c5	0.27649513
216	0xbd19af73	-0.037520837
217	0xbd0ba185	-0.034089584
218	0xbd74fbf2	-0.059810586
219	0xbc74afd8	-0.014934503
220	0x3e2e9f7b	0.17053024
221	0x3df4043a	0.11914869
222	0xbdfd751f	-0.12375855
223	0x3e121533	0.142659
224	0x3ed0ad97	0.4075744
225	0x3e0331a3	0.12811904
226	0x3f23120a	0.636994
227	0xbe1f4ed0	-0.15557408
228	0xbecb3e67	-0.39696047
229	0x3e03ecee	0.1288335
230	0x3e8a5729	0.27019623
231	0x3cdf86da	0.027285982
232	0xbd414bcf	-0.047191437
233	0xbdc01055	-0.09378115
234	0x3dfbf360	0.123022795
235	0x3d9bc2f5	0.076055445
236	0x3d0ae330	0.03390807
237	0xbe7af3d1	-0.24507071
238	0x3eb6f480	0.35733414
239	0x3db8d25b	0.09024497
240	0x3dddcb0d	0.108297445
241	0x3e2a5a1c	0.16635936
242	0x3d30e797	0.04318961
243	0xbec833e8	-0.391021
244	0x3f4b5ce7	0.7943863
245	0xbe227afd	-0.15867229
246	0xbf01142f	-0.5042142
247	0xbe3da715	-0.18520768
248	0x3d916cc6	0.07100825
249	0x3d7cd14f	0.06172305
250	0x3e94accc	0.29038084
251	0x3ea4d623	0.32194623
252	0x3e148310	0.14503121
253	0x3d400eb6	0.04688903
254	0xbf36a6bb	-0.7134816
255	0xbe67ce8c	-0.22637385

fc3.bias f4 [64]
0	0xbd5acca5	-0.05341782
1	0xbde0b250	-0.109715104
2	0x3d292f34	0.041304782
3	0xbe4f8fac	-0.2026965
4	0x3cae5e5e	0.021285232
5	0xbc842488	-0.0161307
6	0xbd4e6a30	-0.050394237
7	0x3d328256	0.04358133
8	0xba8b4afd	-0.0010627207
9	0xbb8163a2	-0.0039486447
10	0xbdc79b4c	-0.097464174
11	0xb99ed918	-0.00030297856
12	0x3c14d6d5	0.009084423
13	0x3d413028	0.047165066
14	0xbcb2241b	-0.021745732
15	0xbd0e5105	-0.034745235
16	0x3a4439e0	0.00074854307
17	0xbd9b89b2	-0.07594623
18	0x3d83daef	0.06438243
19	0xbe0309df	-0.12796734
20	0xbae27302	-0.0017276707
21	0xbe0c9093	-0.13727026
22	0xbbda7be0	-0.006667599
23	0x3ca4e798	0.020129964
24	0xbd15253b	-0.03641246
25	0x3da44ad8	0.08022088
26	0xbcf7a94a	-0.03023209
27	0xbc0129d9	-0.007883512
28	0x3d02f8a8	0.03197542
29	0xbc843b83	-0.016141659
30	0x3d34ad24	0.044110432
31	0x3cbca100	0.02302599
32	0x3c603f16	0.013686916
33	0x3d83d6b0	0.06437433
34	0xbd188715	-0.0372382
35	0x3d4bc09b	0.04974423
36	0x3c8bb5a3	0.017054385
37	0x3d918113	0.07104697
38	0x3d51d366	0.051226996
39	0xbaf22cc8	-0.0018476481
40	0x3d070de1	0.03297222
41	0xbe0f737c	-0.14008898
42	0xbdaf613e	-0.08563469
43	0xbce320fe	-0.027725693
44	0xbd154102	-0.03643895
45	0x3ce7291a	0.028217841
46	0xbcbea8fa	-0.023273934
47	0x3bed5af6	0.0072435094
48	0xbc2f3f30	-0.010696217
49	0x3caebe63	0.021331018
50	0x3c0f63ff	0.008751868
51	0xbe1d1d81	-0.15343286
52	0xbd970ee9	-0.07375891
53	0xbd5a2217	-0.053255167
54	0x3dcae53f	0.099070065
55	0xbde76602	-0.11298753
56	0xbc408f02	-0.011752846
57	0xbb0a908b	-0.0021143283
58	0xb941fc84	-0.00018499984
59	0x3e15e284	0.1463719
60	0x3dafed13	0.0859014
61	0xbbeb8f6f	-0.0071887295
62	0xbd8b973f	-0.06815957
63	0x39ad0c82	0.0003300645

fc4.weight f4 [32, 64]
0	0x3e44fd77	0.19237314
1	0x3e588c0a	0.2114717
2	0xbe2e8285	-0.17041977
3	0x3e050839	0.12991418
4	0x3e1f7667	0.1557251
5	0x3e40397c	0.18771929
6	0x3c94f93c	0.01818525
7	0xbf10655b	-0.56404656
8	0xbe7319a7	-0.23740254
9	0xbe098abd	-0.1343183
10	0xbe77b443	-0.24189858
11	0x3e87e025	0.26538196
12	0x3e04f888	0.12985432
13	0xbd6df843	-0.05809809
14	0xbef09ed4	-0.46996176
15	0xbd09349b	-0.033497434
16	0xbe07fdd3	-0.1328042
17	0x3ed04f3f	0.4068546
18	0xbe20e752	-0.15713242
19	0x3e8d401e	0.2758798
20	0xbe3d8c13	-0.18510465
21	0xbdb2271d	-0.086988665
22	0x3ea4afe0	0.32165432
23	0xbe3c68d0	-0.18399358
24	0x3ad0b480	0.0015922934
25	0xbed030b8	-0.4066217
26	0xbe7f0c82	-0.24907115
27	0x3d4d1c42	0.050075777
28	0x3d1f55ca	0.038900174
29	0xbf0069c8	-0.5016141
30	0x3e394ebf	0.18096446
31	0xbee56d15	-0.44809785
32	0x3db01bef	0.08599078
33	0x3d5e7915	0.05431469
34	0xbe801554	-0.25016272
35	0x3e1b9c57	0.15196358
36	0xbc390e12	-0.0112948585
37	0xbd5a6dcb	-0.053327363
38	0x3ede4bfa	0.4341734
39	0x3e8bea1a	0.27327043
40	0xbd871b1d	-0.06596968
41	0xbdd1c450	-0.10242522
42	0xbe45b8dc	-0.193088
43	0x3d61fa72	0.055170484
44	0x3e2741b7	0.16333662
45	0xbc4a83a8	-0.012360491
46	0x3a87081c	0.0010302099
47	0x3ecde105	0.4021074
48	0x3e2132b0	0.15741992
49	0xbe8c2f6b	-0.27379927
50	0x3f1a6aba	0.603191
51	0x3e86d02a	0.26330692
52	0xbd4ea8ac	-0.050453827
53	0x3d11ddee	0.03561204
54	0xbeafb43a	-0.3431719
55	0x3ec52e01	0.3851166
56	0x3e908468	0.28226018
57	0x3d818098	0.063233554
58	0xbde79c33	-0.113090895
59	0xbf0e0b59	-0.55486065
60	0x3e4b4153	0.19849138
61	0xbd8ca54f	-0.068674676
62	0x3d383fd9	0.044982765
63	0x3e851c73	0.25998268
64	0xbc5840fb	-0.013199086
65	0x3cb4f71d	0.022090489
66	0xbe6fa20c	-0.2340166
67	0xbd1aaa71	-0.0377602
68	0xbe9c560f	-0.30534407
69	0xbc4baa3a	-0.012430722
70	0x3ee88df6	0.45420808
71	0x3c8be580	0.017077208
72	0x3dbb4d37	0.09145587
73	0xbb95679f	-0.0045594717
74	0x3dca68e4	0.098832875
75	0x3e20761f	0.1567006
76	0xbdd65320	-0.104650736
77	0x3ca70cbb	0.020391813
78	0x3e12344d	0.14277764
79	0x3e1657ff	0.14682005
80	0x3e858cd3	0.26084003
81	0xbeb211da	-0.34779245
82	0xbdd1fa20	-0.10252786
83	0xbd312af9	-0.043253873
84	0xbe8d25b8	-0.2756784
85	0xbd0cf3a6	-0.03441205
86	0xbd9e24b4	-0.07721844
87	0xbe7ee386	-0.24891481
88	0x3de8e852	0.113724366
89	0x3cbb3d67	0.022856427
90	0x3e3e9b24	0.18613869
91	0xbd788b9c	-0.060680017
92	0x3d0b8102	0.03405858
93	0xbe61d29e	-0.22053
94	0x3d3e71a5	0.0464951
95	0x3e08ff27	0.13378583
96	0xbddcb109	-0.10775954
97	0xbe387365	-0.1801277
98	0x3dbb3441	0.09140826
99	0x3d935178	0.07193273
100	0xbd3a7dd6	-0.045530163
101	0xbe0eff9f	-0.13964699
102	0x3e25dc3b	0.16197293
103	0x3e2a16ec	0.16610307
104	0xbe34f3ec	-0.17671174
105	0xbcf92624	-0.030413695
106	0x3d616a3a	0.055032946
107	0xbe0ebda4	-0.1393953
108	0xbdb7a40f	-0.089668386
109	0xbe68047b	-0.22657959
110	0xbb46d388	-0.0030338485
111	0xbd7a5e64	-0.061125174
112	0x3dafe521	0.08588625
113	0x3d26d5ee	0.040731363
114	0xbdb580a1	-0.08862425
115	0xbe82ed49	-0.2557166
116	0x3e7b1afc	0.24522012
117	0x3e23ffe9	0.1601559
118	0xbda45148	-0.08023316
119	0x3d6abe8e	0.057310633
120	0x3d9f693c	0.07783744
121	0xbecd5697	-0.40105125
122	0xbd888866	-0.06666641
123	0x3c2b9723	0.0104730455
124	0x3e6c547e	0.23079106
125	0xbd6f263f	-0.058386084
126	0x3d2fe640	0.042944193
127	0x3e5cd4d7	0.21565567
128	0x3d2faade	0.04288756
129	0xbdaeb06b	-0.08529743
130	0x3d3552bf	0.044268366
131	0xbe58bd78	-0.21166027
132	0x3d9a3fb2	0.0753168
133	0xbcf3b2f6	-0.029748421
134	0xbdd41ad9	-0.10356683
135	0xbc48355f	-0.012219756
136	0xbec044ab	-0.3755239
137	0x3e7c2dca	0.24626842
138	0xbd9e9a61	-0.07744289
139	0xbe3d9277	-0.18512903
140	0x3de0348f	0.10947525
141	0xbaa44206	-0.0012531884
142	0xbd04e443	-0.03244425
143	0xb93dbc98	-0.00018094701
144	0xbd2a6475	-0.04159971
145	0x3e699ad9	0.22812976
146	0x3d9c2769	0.076247044
147	0x3decd75a	0.115645126
148	0x3de72213	0.11285796
149	0xbcd40d93	-0.025885379
150	0x3c92353d	0.017847652
151	0x3dbbfa15	0.09178559
152	0xbd2e540f	-0.042560633
153	0x3d8ec981	0.069720276
154	0xbe19db7d	-0.15025134
155	0xbdcaa814	-0.098953396
156	0xbe71aeb0	-0.23601794
157	0xbea1cf76	-0.31603593
158	0xbd310d2c	-0.043225452
159	0xbe2a896f	-0.1665399
160	0xbddecb25	-0.108785905
161	0x3c5b8ec5	0.013400738
162	0x3d730ebb	0.05934022
163	0xbe2c41cf	-0.16821979
164	0x3dd1ec2a	0.10250123
165	0x3de587e7	0.11207562
166	0xbe1ca688	-0.15297902
167	0x3d1ea2c0	0.03872943
168	0x3d1f267d	0.038855065
169	0x3dad4370	0.08460128
170	0xbdb0e57a	-0.08637519
171	0x3e63918d	0.22223492
172	0x3e8f8976	0.28034562
173	0xbe147123	-0.14496283
174	0xbd073da8	-0.033017784
175	0x3d6c98ed	0.05776303
176	0x3e5b59e1	0.21421005
177	0xbea8f497	-0.32999107
178	0x3e39765e	0.1811156
179	0x3dca69d3	0.098834656
180	0xbdf136a8	-0.11778003
181	0x3e2ac1f3	0.16675548
182	0x3ceb633d	0.028733844
183	0x3e211939	0.15732278
184	0xbe2dc0b3	-0.1696804
185	0x3b7c13e6	0.0038464009
186	0xbd7d171b	-0.061789613
187	0x3e29c2c8	0.1657821
188	0x3e84a7ef	0.25909373
189	0xbd3290b9	-0.04359505
190	0x3d4d9c0c	0.050197646
191	0x3d124e7b	0.035719376
192	0x3dbc0fd7	0.09182709
193	0xbe6b86b0	-0.23000598
194	0x3e4e7b25	0.20164163
195	0xbfd3bbb4	-1.6541657
196	0x3a8ccb4a	0.0010741737
197	0xbdfb727d	-0.12277696
198	0x3e810885	0.25201812
199	0xbe5d60c0	-0.21618938
200	0x3e5e7a1e	0.21726272
201	0x3e01ec41	0.1268778
202	0xbe73b980	-0.23801231
203	0x3e662c4c	0.22477835
204	0xbef901cd	-0.48634186
205	0xbe58e449	-0.21180834
206	0x3f03a602	0.5142518
207	0xbd390fa6	-0.04518094
208	0x3de71e64	0.112850934
209	0x3f10a6c7	0.5650448
210	0xbd9bf335	-0.076147474
211	0x3d8307a7	0.06397944
212	0x3cadd466	0.021219444
213	0x3e4d4235	0.20044787
214	0xbf38063f	-0.7188453
215	0x3e66055b	0.2246298
216	0x3dc9ec3a	0.0985951
217	0x3d93585b	0.07194587
218	0x3d8e45c7	0.06946903
219	0x3b75c801	0.0037503245
220	0xbe991c2f	-0.29904315
221	0xbec9923d	-0.39369383
222	0x3c851844	0.016246922
223	0x3e21c515	0.15797837
224	0x3e27938b	0.16364877
225	0xbed9756a	-0.42472392
226	0xbf03ff13	-0.5156109
227	0xbc547c46	-0.012969082
228	0x3f272fe2	0.6530744
229	0x3e76bded	0.24095888
230	0xbea97218	-0.3309486
231	0xbe88a4f9	-0.26688364
232	0x3d1fc16f	0.039002832
233	0x3eb9e7d3	0.3630968
234	0x3dbf4ab2	0.09340419
235	0xbe1f2194	-0.15540153
236	0x3e3fd37a	0.18733016
237	0x3ea89637	0.32927105
238	0x3e510385	0.20411499
239	0x3dafa624	0.08576611
240	0xbcfd8efb	-0.030951967
241	0xbf5a038c	-0.8516166
242	0x3d7adb6d	0.061244417
243	0x3eee4c3d	0.4654254
244	0x3e175db9	0.14781846
245	0xbe5f9d00	-0.21837234
246	0x3f25135e	0.64482677
247	0xbe0b2378	-0.13587749
248	0x3eae7e58	0.34080768
249	0xbe86a979	-0.26301172
250	0x3c6144ad	0.013749284
251	0xbf173dcf	-0.5907869
252	0xbfa27923	-1.2693218
253	0xbd2caa1f	-0.042154428
254	0x3eb43d38	0.35202956
255	0xbc219859	-0.009862983

fc4.bias f4 [32]
0	0xbe6e284c	-0.2325756
1	0x3d05844b	0.032596868
2	0xbdf4040a	-0.11914833
3	0x3d21778c	0.03942065
4	0xbe524da8	-0.20537436
5	0xbd4a73ec	-0.049426958
6	0x3d2cef5e	0.042220466
7	0xbddb52c2	-0.10709144
8	0xbddd84f6	-0.10816376
9	0xbde71b65	-0.11284522
10	0xbda9ad9a	-0.08285065
11	0xbd8edbe4	-0.069755346
12	0x3c3ec627	0.011643923
13	0xbe96a4a0	-0.29422474
14	0x3d464385	0.048404235
15	0xbcb61190	-0.022225171
16	0xbe08924a	-0.13337055
17	0x3bce2cb2	0.006291949
18	0xbe249d42	-0.16075614
19	0xbe514dcb	-0.20439832
20	0xbdffaccc	-0.1248413
21	0xbdac13bf	-0.08402204
22	0xbc949888	-0.018139139
23	0xbdda77be	-0.1066737
24	0x3c9f27b1	0.019428106
25	0xbe576d23	-0.21037726
26	0xbeb5d730	-0.35515738
27	0xbe9dcb4f	-0.30819175
28	0x00000000	0.0
29	0x3ca7a395	0.020463744
30	0xbda94fff	-0.08267211
31	0xbde90b31	-0.11379088

fc5.weight f4 [32, 32]
0	0xbb1a8df7	-0.0023583153
1	0xbe245334	-0.16047364
2	0xbe89b4ea	-0.2689584
3	0x3d95f423	0.07321956
4	0x3e10010a	0.14062896
5	0xbe8656cf	-0.26238105
6	0xbc774055	-0.015091022
7	0x3c57efa8	0.013179697
8	0x3d4eb47b	0.05046509
9	0x3e14a75b	0.14516966
10	0x3d7ad6b6	0.06123992
11	0x3d897923	0.06712558
12	0xbd117686	-0.035513423
13	0xbe5e5b3b	-0.21714489
14	0xbe726ce3	-0.2367435
15	0xbe3f2937	-0.18668066
16	0x3eb53b62	0.35396868
17	0x3ea5ec37	0.3240678
18	0xbea4c1cf	-0.32179114
19	0xbec85189	-0.39124706
20	0xbdf187ad	-0.11793456
21	0xbdaad54e	-0.08341466
22	0xbf059122	-0.5217458
23	0x3e5a62e9	0.21326794
24	0xbe69c601	-0.22829439
25	0x3e020ee1	0.12700988
26	0xbd08c28b	-0.033388656
27	0x3e29010b	0.16504304
28	0xbd4b4223	-0.04962362
29	0xbe943383	-0.2894555
30	0xbf31c486	-0.69440496
31	0xbddfd4dc	-0.109292716
32	0xbd26eb95	-0.040752012
33	0x3c186f13	0.009303826
34	0x3d184aa5	0.03718056
35	0x3eb6ba0a	0.35688812
36	0xbddf1ad3	-0.10893788
37	0x3da15764	0.078779966
38	0x3e15c7f8	0.14627063
39	0xbe34122d	-0.17585059
40	0x3d4a4545	0.049382467
41	0x3cc925ba	0.024554122
42	0x3f32495b	0.6964318
43	0xbdd30672	-0.10303964
44	0xbf026309	-0.50932366
45	0xbe119eab	-0.14220683
46	0xbf10a7ec	-0.5650623
47	0xbf03c4e3	-0.514723
48	0x3cdfa6bd	0.027301187
49	0xbbfa2680	-0.007633984
50	0xbdc29f91	-0.09503091
51	0xbe00dbd6	-0.12583861
52	0x3d9e6da7	0.07735758
53	0xbd8cff52	-0.06884636
54	0x3e4baacf	0.19889377
55	0xbea96660	-0.33085918
56	0xbf0d85a8	-0.5528207
57	0xbdb0211b	-0.08600064
58	0xbe6a90d9	-0.22906817
59	0xbf0d2389	-0.5513235
60	0xbe0e03ed	-0.13868685
61	0xbf682237	-0.9067721
62	0xbf1c625f	-0.610876
63	0xbd23274c	-0.0398324
64	0x3e1f78cb	0.15573423
65	0xbe209638	-0.15682304
66	0xbc869cee	-0.016432252
67	0x3e5eb9a9	0.21750511
68	0x3ed502b7	0.41603634
69	0xbd0e592f	-0.03475302
70	0xbe5f2c06	-0.21794137
71	0xbee6e9ac	-0.45100152
72	0x3d13a486	0.036045574
73	0xbea9766f	-0.3309817
74	0xbe7d3d54	-0.24730426
75	0x3dca8ce8	0.09890157
76	0x3d29e168	0.04147473
77	0xbe00ca0e	-0.12577078
78	0x3d06e949	0.03293732
79	0xbe05576e	-0.13021633
80	0x3ec66fec	0.38757265
81	0xbeb68545	-0.35648552
82	0xbea67c73	-0.32516822
83	0x3e15718d	0.14594097
84	0xbf6c9e2c	-0.9242885
85	0xbddf7191	-0.10910333
86	0x3d1bfe48	0.0380843
87	0x3ee29431	0.44253686
88	0x3db008ed	0.085954525
89	0x3f1765b4	0.5913956
90	0xbedde30e	-0.4333729
91	0xbf856744	-1.0422139
92	0x3eb193df	0.3468313
93	0xbcda32a8	-0.026635483
94	0x3ec6ff23	0.3886653
95	0xbdb7cbc2	-0.089744106
96	0x3dc9f80a	0.09861763
97	0x3e0304c7	0.12794791
98	0x3d839c65	0.06426314
99	0x3f31f6c9	0.6951719
100	0x3ebafb73	0.36519966
101	0x3e6841cb	0.22681348
102	0x3e08affa	0.1334838
103	0xbdcbe71c	-0.0995619
104	0x3d11dcb9	0.03561089
105	0xbc9aabb6	-0.018880706
106	0xbde91e91	-0.11382783
107	0xbd231c0f	-0.03982168
108	0x3dc9cae5	0.09853152
109	0x3f048eeb	0.51780576
110	0x3e44b727	0.19210492
111	0x3e1ed26b	0.15509956
112	0x3e48cc0c	0.19609088
113	0xbd69d50e	-0.05708795
114	0xbd736e92	-0.05943162
115	0x3df1d3ba	0.11807962
116	0xbe17768d	-0.14791317
117	0xbdcf8e69	-0.101345845
118	0x3d235c58	0.039882988
119	0xbe99f6c6	-0.30071086
120	0x3de22e11	0.11043943
121	0x3cea62ae	0.028611507
122	0x3d07c02d	0.033142257
123	0xbf1e472d	-0.61827356
124	0xbede8c55	-0.4346644
125	0x3ce7b951	0.028286608
126	0x3dbceef9	0.09225268
127	0xbd760c45	-0.060070295
128	0xbe8ab4e9	-0.27091148
129	0xbec89f1c	-0.3918389
130	0xbe989e30	-0.29808187
131	0xbf04a967	-0.5182099
132	0xbc9a867a	-0.018862952
133	0xbe07229f	-0.131968
134	0x3e35b8db	0.17746298
135	0x3c5a17fd	0.013311383
136	0x3d0312c2	0.03200031
137	0x3e99de6d	0.3005251
138	0xbd5680f7	-0.052369084
139	0x3e6fa702	0.23403552
140	0x3ea6463a	0.32475454
141	0xbec0def7	-0.3767011
142	0xbe4b2733	-0.19839172
143	0x3d5da6cc	0.054114148
144	0x3e8b32df	0.2718725
145	0xbe6fbcf4	-0.23411924
146	0x3d0e1c9d	0.034695257
147	0x3c16221f	0.009163409
148	0xbf13bd1f	-0.5771045
149	0x3d90707e	0.07052706
150	0x3e446f59	0.19183101
151	0x3bc1cfa8	0.005914647
152	0xbb5808d0	-0.0032964237
153	0x3e5f69de	0.21817729
154	0xbf00cea7	-0.50315326
155	0x3e226267	0.1585785
156	0xbe1b1973	-0.15146427
157	0xbf164af1	-0.587081
158	0xbd8718a4	-0.06596497
159	0x3d6d42f0	0.057925165
160	0x3e3d60be	0.18493935
161	0x3ea2d702	0.31804663
162	0xbef174c9	-0.47159413
163	0x3f29fbd8	0.6639991
164	0x3dabea95	0.08394352
165	0xbe4d209b	-0.20031969
166	0x3e4cf871	0.20016648
167	0x3e6153d2	0.22004631
168	0x3db095f3	0.086223505
169	0xbe689859	-0.22714366
170	0x3c8dc0c6	0.017303836
171	0xbdf84351	-0.121222146
172	0xbcbd39cc	-0.023098849
173	0x3e825557	0.25455734
174	0xbe08e005	-0.13366707
175	0xbd888d1b	-0.06667539
176	0x3edd677b	0.43243012
177	0xbde2e56f	-0.11078917
178	0xbdd2ba38	-0.10289425
179	0xbe84742b	-0.2586988
180	0x3d218ba8	0.039439827
181	0x3e8af23f	0.27137944
182	0x3e595bc2	0.21226409
183	0xbd2efc36	-0.042720996
184	0x3e2b2e01	0.16716768
185	0xbdb27991	-0.08714593
186	0xbdaf0028	-0.08544952
187	0xbf6a20b9	-0.9145618
188	0xbebce635	-0.36894384
189	0x3e83563a	0.25651723
190	0x3e4209e2	0.18949082
191	0xbd56c780	-0.05243635
192	0x3e8a7c77	0.27048084
193	0x3da6302e	0.08114658
194	0x3d5d5775	0.054038484
195	0x3f0daed9	0.5534492
196	0xbd76a612	-0.06021697
197	0xbe9f8265	-0.3115417
198	0x3e920adf	0.2852392
199	0xbe1fcbd5	-0.156051
200	0x3e5af71c	0.21383327
201	0x3d652a2f	0.055948433
202	0x3d8aa23a	0.067692235
203	0xbded13c7	-0.11576038
204	0x3e2fda8c	0.17173213
205	0x3e3997ee	0.18124363
206	0x3e1efee1	0.15526916
207	0x3e0484a4	0.12941223
208	0x3e3190fc	0.17340463
209	0xbe34e687	-0.17666064
210	0x3ec386a9	0.38188675
211	0x3d9733ae	0.07382904
212	0x3d3a9828	0.045555264
213	0x3e59d460	0.21272421
214	0x3e2f9a42	0.17148688
215	0x3db4f285	0.088353194
216	0x3cbe2191	0.023209365
217	0xbe35085d	-0.17678972
218	0xbd1e4a74	-0.038645223
219	0xbf04c920	-0.5186939
220	0x3e1adcef	0.15123342
221	0x3eb26b46	0.34847468
222	0x3da6c43b	0.08142897
223	0xbca5a66d	-0.02022096
224	0xbe1d3939	-0.1535386
225	0xbe527c79	-0.20555295
226	0x3d73b05d	0.059494365
227	0xbe842ca2	-0.25815302
228	0xbd341e2f	-0.043974098
229	0x3e9eb939	0.3100069
230	0xbdd0778f	-0.10179054
231	0xbe299534	-0.16560823
232	0x3e817217	0.25282356
233	0xbd86998b	-0.06572255
234	0x3dc2cf11	0.09512151
235	0xbd7832f1	-0.060595457
236	0xbdffa403	-0.12482455
237	0x3df952ec	0.12174019
238	0xbeaedb5f	-0.34151742
239	0x3cd1aef3	0.025596118
240	0x3e4f3c1d	0.20237775
241	0x3d9844e9	0.074350186
242	0x3cf4d196	0.029885095
243	0xbe1dc6bc	-0.15407842
244	0x3e30cbfa	0.17265311
245	0xbb78f9aa	-0.0037990608
246	0xbe81e4a4	-0.2536975
247	0xbde8abc9	-0.113608904
248	0xbf001093	-0.5002529
249	0x3e42c34d	0.19019814
250	0xbd6da7cf	-0.058021363
251	0x3e80d6da	0.2516392
252	0x3d920fc2	0.07131912
253	0x3c9f53ee	0.0194492
254	0x3e2bd205	0.16779335
255	0xbe0df785	-0.13863952

fc5.bias f4 [32]
0	0xbe1e1740	-0.15438557
1	0xbda83bd4	-0.08214536
2	0xbe0d3264	-0.13788754
3	0xbb9aa2f2	-0.0047191316
4	0xbd6789b3	-0.056527805
5	0x3d5ba7f8	0.053626984
6	0x3d91fd48	0.07128388
7	0xbddb0d01	-0.1069584
8	0x3bb19b37	0.0054201144
9	0xbc316fa1	-0.010829837
10	0xbdfaafb2	-0.122405425
11	0xbf04ef0e	-0.5192727
12	0xbe19fc24	-0.1503759
13	0xbe0f2983	-0.13980679
14	0xbded87c6	-0.11598162
15	0xbe55112a	-0.20807329
16	0x3c4df0f3	0.012569654
17	0x3e1c3965	0.1525627
18	0xbea3775a	-0.31926996
19	0x3cf5e81f	0.03001791
20	0xbdcd77aa	-0.1003259
21	0x3daee8fb	0.08540531
22	0x3db0b5ce	0.086284265
23	0xbda96a03	-0.08272173
24	0x3c06d491	0.008229391
25	0xbe5ec523	-0.21754889
26	0xbe3a510e	-0.18194982
27	0x3db24610	0.087047696
28	0xbda13f94	-0.07873455
29	0xbd1ec8cb	-0.03876571
30	0xbed9c0b1	-0.42529824
31	0xbeb336c5	-0.35002723

fc6.weight f4 [64, 32]
0	0xbdcce2ec	-0.100042194
1	0xbda9e647	-0.08295875
2	0x3ea27a8d	0.31734124
3	0x3e25243e	0.16127107
4	0xbe226759	-0.15859737
5	0xbe7d9f62	-0.24767831
6	0xbde3f25d	-0.111302115
7	0xbd26fb8b	-0.040767234
8	0x3eb7288e	0.35773128
9	0x3ed25ca5	0.41086307
10	0xbe1e32e3	-0.15449099
11	0xbe577b2a	-0.21043077
12	0xbe6868b4	-0.22696191
13	0x3cfc3c6f	0.030790536
14	0x3d8be3a2	0.06830527
15	0xbd9d7434	-0.076881796
16	0x3d05068d	0.03247695
17	0x3d189394	0.037250116
18	0x3cd5781c	0.02605825
19	0x3ca80aaa	0.020512898
20	0x3e04b0f5	0.12958129
21	0x3e187040	0.1488657
22	0x3d49acb0	0.049236953
23	0xbe27f0cc	-0.1640045
24	0x3de94644	0.11390355
25	0xbe1174ac	-0.14204663
26	0xbe50e5ae	-0.20400116
27	0x3e6a5be1	0.22886612
28	0xbdf46aa0	-0.119343996
29	0xbd07b930	-0.033135593
30	0xbe986be0	-0.29769802
31	0xbdf12362	-0.11774327
32	0x3dd7b415	0.10532395
33	0x3dd8fac6	0.10594706
34	0x3f131d57	0.57466644
35	0x3e2eeaf2	0.17081812
36	0xbe2ec2bf	-0.17066477
37	0x3d3cb57e	0.046071522
38	0x3c68c9cc	0.014208268
39	0xbd6d06f9	-0.057867978
40	0xbeaf969c	-0.34294593
41	0xbe070293	-0.13184576
42	0xbc5222c9	-0.012825676
43	0xbecc9991	-0.39960912
44	0x3cf2438f	0.02957323
45	0xbdd59fd8	-0.104308784
46	0xbd89ef0f	-0.0673505
47	0x3c4601f5	0.0120854275
48	0x3dc54f91	0.09634317
49	0xbf5541d7	-0.8330359
50	0xbd75f109	-0.060044322
51	0xbf2538ab	-0.64539593
52	0xbdbf1a8b	-0.093312345
53	0xbda860e9	-0.08221609
54	0xc0292338	-2.6427746
55	0xbdf0d355	-0.117590584
56	0x3e87e98c	0.2654537
57	0xbc2582cf	-0.010101988
58	0xbf636c4b	-0.88837117
59	0x3d5c9d47	0.05386093
60	0x3db38d8e	0.08767234
61	0x3e47b441	0.19502355
62	0xbf1a2d82	-0.6022569
63	0xbd6e951b	-0.058247667
64	0xbe3027f9	-0.17202748
65	0xbe6dba9d	-0.23215719
66	0xbe922d16	-0.28550023
67	0xbc323fe9	-0.010879495
68	0x3d509016	0.05091866
69	0x3dce5101	0.10074044
70	0x3b56bc92	0.0032766205
71	0x3dc8ffa2	0.09814383
72	0xbd59629e	-0.053072564
73	0xbd88edf1	-0.06686009
74	0x3dcbffc8	0.09960896
75	0x3ca8e78e	0.020618226
76	0xbe13b81f	-0.14425705
77	0xbddcb68a	-0.10777004
78	0x3c3486fd	0.011018512
79	0x3d6b6a32	0.057474323
80	0xbe2a4b23	-0.16630225
81	0x3a9e568a	0.0012080234
82	0x3d98528a	0.07437618
83	0xbe041de7	-0.12902032
84	0xbd3a2e54	-0.04545434
85	0xbe822680	-0.25419998
86	0xbe0174c8	-0.12642205
87	0xbe38d206	-0.18048868
88	0x3d7e3106	0.06205847
89	0x3d81dfeb	0.06341537
90	0x3dfc4af3	0.12318983
91	0xbe183e09	-0.14867415
92	0x3e6b6932	0.22989348
93	0xbd106654	-0.035253838
94	0xbe0f09ff	-0.13968657
95	0xbe528513	-0.20558576
96	0xbde33550	-0.11094153
97	0xbed42b2b	-0.41439185
98	0xbf06d3e9	-0.526671
99	0xbe1e5923	-0.1546369
100	0x3f2028f0	0.62562466
101	0xbc55a2f0	-0.013039336
102	0x3c6fe292	0.014641421
103	0x3d355a19	0.044275377
104	0x3f498d2b	0.7873103
105	0xbee112a2	-0.43959528
106	0xbdb79242	-0.08963443
107	0xbd0af8a3	-0.033928525
108	0xbe94e925	-0.29084125
109	0xbe65e04b	-0.22448842
110	0x3e9dee28	0.3084576
111	0xbe14d8ea	-0.14535871
112	0x3d3a35fa	0.045461632
113	0xba467aff	-0.00075714284
114	0xbe61810f	-0.22021888
115	0xbe537b5b	-0.20652525
116	0xbd6c4234	-0.057680324
117	0xbdad1ac5	-0.084523715
118	0x3e8f9e5d	0.2805051
119	0xbe0b453a	-0.13600627
120	0xbe9bb543	-0.3041173
121	0xbd204550	-0.0391286
122	0xbe4d61e7	-0.20056878
123	0x3e735ca6	0.23765811
124	0x3d5166eb	0.05112354
125	0xbc35953d	-0.011082944
126	0x3d895370	0.067053676
127	0xbf0feb80	-0.5621872
128	0x3e5eced8	0.21758592
129	0x3c8bc19d	0.017060095
130	0x3e68f2b6	0.22748837
131	0x3ea5aeb0	0.32359838
132	0xbd84034e	-0.06445943
133	0x3cb1fc76	0.021726828
134	0xbe61f5ae	-0.22066376
135	0xbd8e2fda	-0.06942721
136	0xbe875524	-0.26432145
137	0xbed37419	-0.41299513
138	0x3c940685	0.018069515
139	0xbf1ee143	-0.6206247
140	0xbdbf686d	-0.093460895
141	0x3a5f6286	0.0008521456
142	0xbe5dd846	-0.21664533
143	0xbb8b06d4	-0.0042427573
144	0xbe78cef4	-0.24297696
145	0xbf008cbd	-0.5021475
146	0x3e55d50d	0.20882054
147	0x3d32274c	0.043494508
148	0xbd59191b	-0.053002458
149	0xbe85f6f8	-0.26164985
150	0xbedc2ded	-0.4300379
151	0xbe5d8984	-0.2163449
152	0xbcbec0a2	-0.023285214
153	0xbdbd581f	-0.092453234
154	0xbddf56ba	-0.10905214
155	0xbd87d99f	-0.06633305
156	0x3dd3fd9b	0.10351106
157	0x3d531606	0.051534675
158	0xbdab9c8d	-0.08379469
159	0x3e464dc8	0.19365609
160	0xbd6952b4	-0.056963637
161	0x3cc12a9b	0.023579886
162	0xbe154f92	-0.14581135
163	0xbe0f8236	-0.14014515
164	0x3cde5d03	0.02714396
165	0xbdd4e4ca	-0.103952006
166	0xbe2ca28e	-0.16858885
167	0x3de75f14	0.112974316
168	0xbe9eb57c	-0.30997837
169	0x3df50f6c	0.11965832
170	0xbe0a87b5	-0.1352833
171	0xbd491150	-0.049088776
172	0xbe08ec8f	-0.1337149
173	0x3d698afe	0.05701732
174	0x3e2588f4	0.16165525
175	0xbe0be02c	-0.13659734
176	0xbe5db14e	-0.21649668
177	0xbd1708d5	-0.036873657
178	0xbe33e9cb	-0.17569654
179	0xbd8a6944	-0.06758359
180	0xbd768de1	-0.0601939
181	0xbe9fdb31	-0.31221917
182	0x3ee955b2	0.45573193
183	0xbd8ead49	-0.06966645
184	0x3db15d70	0.086604
185	0xbe806595	-0.250775
186	0xbcec4e36	-0.028845888
187	0xbd745a6b	-0.05965654
188	0x3cb5027b	0.02209591
189	0xbdf719da	-0.12065478
190	0x3da043e5	0.0782545
191	0x3e3c7866	0.18405303
192	0x3ccb14ee	0.024790253
193	0x3e2a3264	0.16620785
194	0xbe01bb4c	-0.12669104
195	0xbe684687	-0.22683154
196	0xbd41460e	-0.04718595
197	0x3e2b7cfa	0.16746894
198	0xbe8f9fa0	-0.28051472
199	0x3c84122c	0.016121946
200	0xbbd329bc	-0.006444184
201	0x3e136a15	0.14395936
202	0xbdb2015f	-0.08691668
203	0xbe15fa6c	-0.1464631
204	0x3e089ea0	0.1334176
205	0xbd5bafda	-0.053634502
206	0xbe442f94	-0.19158775
207	0x3e960f39	0.2930849
208	0xbe013df1	-0.12621285
209	0xb9bdfd17	-0.00036237456
210	0xbd2e3047	-0.04252651
211	0x3d103621	0.03520787
212	0x3e480011	0.19531275
213	0xbdb7b82e	-0.08970676
214	0xbda7ccf0	-0.081933856
215	0x3e17dde9	0.14830746
216	0xbe1d7571	-0.15376832
217	0xbc78f8ea	-0.0151960645
218	0x3ebeaa40	0.37239265
219	0x3e6e4930	0.23270106
220	0x3cc88526	0.024477553
221	0x3e228e21	0.1587453
222	0x3e52d0e2	0.20587495
223	0xbd128a4f	-0.035776433
224	0x3e7f37c0	0.2492361
225	0xbe22fe78	-0.15917385
226	0xbe89d8ee	-0.26923317
227	0xbe0da68a	-0.13833061
228	0xbcf56fd5	-0.029960552
229	0x3d543e8f	0.051817473
230	0xbe97c3c2	-0.2964154
231	0xbd9eba2b	-0.077503525
232	0x3de94040	0.11389208
233	0xbeb92dc4	-0.3616773
234	0x3e9c644f	0.3054528
235	0x3daf58da	0.08561869
236	0xbe2b32ae	-0.16718552
237	0x3d339911	0.043847147
238	0x3e547c0e	0.20750448
239	0xbe27b251	-0.16376616
240	0xbd159c18	-0.036525816
241	0x3dbd5f09	0.09246642
242	0x3dc19d60	0.09453845
243	0xbc34c20a	-0.011032591
244	0x3e271d1d	0.163197
245	0x3dc78230	0.09741628
246	0xbe18c3ae	-0.14918396
247	0xbe8a89d0	-0.27058268
248	0xbd7ded14	-0.061993673
249	0xbe448183	-0.1919003
250	0xbd447cee	-0.047970705
251	0xbd93a20b	-0.072086416
252	0x3db8438c	0.089972585
253	0x3d034d01	0.03205586
254	0x3e8c07ee	0.273498
255	0xbcc7bf08	-0.024383083
