trained_NN_surrogate_and_optim_in_loop/models/nn_acc_5percent.pt (torch, 98092 bytes, 17 tensors)

fc1.weight f4 [128, 6]
0.06321944 -0.14212644 0.2449998 -0.038923297 0.10310846 0.14843526 -0.1898328 0.036263786
0.07735678 0.24899633 0.0011552005 0.006064085 0.11680116 -0.74108386 -0.32299966 0.10328772
0.10900568 -0.005718459 0.0133033255 -0.04147914 -0.09162959 0.07263207 -0.0041264463 -0.012273556
-0.0065361816 0.07353626 0.19331738 -0.011711107 0.0075333994 0.25019377 -0.10605257 -0.435376
-0.2584784 0.020408576 0.27078256 0.077049896 -0.011692705 0.1395124 0.07039215 0.17130426
0.04840749 0.12815857 0.19054647 -0.4182606 -0.08716714 0.056391854 -0.2652765 0.06545122
0.027854444 -0.9649648 -0.17900237 0.07333999 0.07576072 0.27289662 -0.29539385 -0.06306199
0.15646361 0.071892925 0.092647165 0.29645672 -0.070604466 0.012243777 -0.21800208 -0.012215444
0.013779682 -0.18579693 0.08888737 -0.03170391 0.12913531 -0.19875604 -0.08284601 -0.028863367
-0.004870763 0.1665385 0.12652507 0.11791797 0.043242484 0.02518689 -0.007904798 -0.08100001
-0.19764121 0.1186254 -0.035458103 -0.08017174 -0.0044557704 -0.10442615 -0.08360951 -0.1514131
-0.045991626 0.08931041 0.04583312 -0.07879547 -0.039666265 -0.11269469 0.056562357 -0.006709716
0.11748957 -0.27698043 -0.008006565 0.01963935 -0.07283069 0.41613472 0.019464895 0.24821793
-0.047596898 0.18385795 -0.06529001 0.06603357 -0.14404951 0.038225245 -0.41873565 0.29985148
-0.11012839 -0.13065654 -0.16319442 0.1659618 -0.112859264 0.3260855 -0.03448202 0.0010652143
-0.02612345 -0.21221963 0.006250204 -0.057640754 0.054212585 -0.13963698 -0.0048959437 0.037078075
-0.07686696 -0.095766194 -0.22251613 -0.2191176 0.062008817 0.4359678 -0.020695727 0.016720638
-0.11984258 -0.042782918 -0.039963257 -0.105190136 -0.13817307 -0.06977415 -0.045538332 -0.2882261
-0.20055991 -0.9845003 0.39198208 0.04309435 0.07334169 -0.04773643 -0.27418935 -0.21035108
0.07353592 0.14589833 0.1637088 -0.16264975 0.042876188 0.3014519 -0.077857584 0.31286213
-0.010015377 -0.061649274 0.043338567 -0.5741372 0.293076 0.18661374 -0.37279487 -0.2852523
0.19620493 -0.021571001 -0.13541251 4.1100087e-05 -0.23645902 -0.5130431 -0.0822669 0.062478736
0.04390001 0.3063227 -0.06752326 0.07910954 0.0031606054 -0.2838711 -0.36259538 -0.0705756
-0.32950145 0.29902723 0.030485872 0.10477009 -0.06951552 0.043699197 0.08166055 -0.23866667
-0.24496664 0.13141994 0.22458167 0.028281571 -0.112386346 0.22529887 -0.0116332015 0.11695761
0.10910807 0.24596037 0.017142579 -0.031531245 -0.13807116 -0.4450393 -0.08384223 0.01662676
0.30875123 -0.367277 0.05584757 -0.20267391 -0.17733316 -0.02744025 0.01892181 -0.049711034
0.08012951 0.09631643 -0.001032957 0.16695134 0.024305817 0.21124427 -0.19465415 -0.10688711
0.12135162 -0.048264686 -0.21592884 -0.01103801 -0.15351202 -0.09278988 -0.07177739 0.0063628363
0.06241242 -0.03401587 -0.09577811 0.28542542 -0.04754621 -0.5933555 0.025263038 0.07716884
-0.07887413 0.06748603 -0.11945134 0.07740905 0.015033743 -0.09158377 0.07646149 -0.45792273
-0.06492824 -0.025624381 -0.057347674 -0.16921046 0.008706383 0.29423875 -0.04050569 -0.39913753
00000000: 3279 813d 9889 11be 3ae1 7a3e 096e 1fbd
00000010: 872a d33d 6aff 173e 8863 42be 5689 143d
00000020: 3b6d 9e3d e5f8 7e3e 196a 973a 3bb5 c63b
00000030: 7235 ef3d acb7 3dbf 3660 a5be 8388 d33d
00000040: 5f3e df3d e961 bbbb 31f6 593c 08e6 29bd
00000050: 4ba8 bbbd 1fc0 943d 2437 87bb 0617 49bc
00000060: 772d d6bb 2e9a 963d fef4 453e f1df 3fbc
00000070: bcda f63b 6619 803e 1732 d9bd 9ae9 debe
00000080: 4857 84be e32f a73c 03a4 8a3e 56cc 9d3d
00000090: c292 3fbc 57dc 0e3e c229 903d 626a 2f3e
000000a0: ef46 463d 003c 033e 9d1e 433e 4126 d6be
000000b0: af84 b2bd 25fb 663d 52d2 87be 4a0b 863d
000000c0: 012f e43c ef07 77bf 664c 37be 4733 963d
000000d0: 7028 9b3d 1bb9 8b3e dd3d 97be a526 81bd
000000e0: ff37 203e 993c 933d ccbd bd3d 2dc9 973e
000000f0: 1399 90bd 1f9a 483c f03b 5fbe 4923 48bc
00000100: 2dc4 613c 8d41 3ebe 950a b63d f6db 01bd
00000110: 0c3c 043e b486 4bbe 2bab a9bd de72 ecbc
00000120: ec9a 9fbb 1289 2a3e ca8f 013e fa7e f13d
00000130: 081f 313d bd54 ce3c 2083 01bc 55e3 a5bd
00000140: 7562 4abe e0f1 f23d 843c 11bd 1531 a4bd
00000150: b601 92bb 61dd d5bd 763b abbd 090c 1bbe
00000160: b761 3cbd 60e8 b63d 82bb 3b3d 855f a1bd
00000170: 1879 22bd 79cc e6bd eead 673d 2ddd dbbb
00000180: 5f9e f03d 61d0 8dbe f82d 03bc b4e2 a03c
00000190: 4228 95bd 9c0f d53e d874 9f3c d72c 7e3e
000001a0: f7f4 42bd 4245 3c3e c5b6 85bd 9c3c 873d
000001b0: b781 13be 1392 1c3d 8564 d6be 2286 993e
000001c0: fe8a e1bd d4ca 05be 701c 27be e4f1 293e
000001d0: c222 e7bd aef4 a63e 053d 0dbd a99e 8b3a
000001e0: d800 d6bc 1a50 59be 83ce cc3b b618 6cbd
000001f0: 040e 5e3d fffc 0ebe 276e a0bb 2edf 173d
00000200: 6d6c 9dbd 1121 c4bd 45db 63be 5d60 60be
00000210: f5fc 7d3d 2c37 df3e 168a a9bc b8f9 883c
00000220: 0770 f5bd 243d 2fbd 83b0 23bd ed6d d7bd
00000230: 3e7d 0dbe c0e5 8ebd 6786 3abd 5f92 93be
00000240: 945f 4dbe 3608 7cbf e0b1 c83e b383 303d
00000250: 2b34 963d 4687 43bd 8c62 8cbe 4666 57be
00000260: 009a 963d 5f66 153e 48a3 273e a88d 26be
00000270: f19e 2f3d e757 9a3e cc73 9fbd 772f a03e
00000280: 8917 24bc f383 7cbd c883 313d a8fa 12bf
00000290: 0f0e 963e ac17 3f3e f8de bebe 970c 92be
000002a0: f2e9 483e abb5 b0bc 94a9 0abe e262 2c38
000002b0: 5022 72be cb56 03bf 8c7b a8bd b4e9 7f3d
000002c0: 7fd0 333d 54d6 9c3e a349 8abd 2f04 a23d
000002d0: 2922 4f3b 8e57 91be 1aa6 b9be f189 90bd
000002e0: 6ab4 a8be 191a 993e 82bd f93c b391 d63d
000002f0: 275e 8ebd eefd 323d a53d a73d 0965 74be
00000300: 89d8 7abe f392 063e bdf8 653e c1ae e73c
00000310: d02a e6bd bfb4 663e 2f99 3ebc 7987 ef3d
00000320: 0d74 df3d 09dd 7b3e 986e 8c3c e826 01bd
00000330: 8762 0dbe 31dc e3be 7ab5 abbd d834 883c
00000340: a414 9e3e bb0b bcbe 6cc0 643d c089 4fbe
00000350: d396 35be 60ca e0bc e901 9b3c cc9d 4bbd
00000360: f11a a43d 8c41 c53d 4964 87ba 4bf5 2a3e
00000370: fe1c c73c 6b50 583e 6b53 47be a1e7 dabd
00000380: 3387 f83d 31b1 45bd 731c 5dbe c5d8 34bc
00000390: 4132 1dbe 9f08 bebd 0600 93bd 577f d03b
000003a0: 2aa4 7f3d 3a54 0bbd 5027 c4bd 4823 923e
000003b0: d1bf 42bd 25e6 17bf 6ef4 ce3c b20a 9e3d
000003c0: c388 a1bd 1e36 8a3d e7a2 f4bd a388 9e3d
000003d0: 1750 763c 4690 bbbd d797 9c3d d974 eabe
000003e0: 19f9 84bd 39ea d1bc 65e5 6abd 8245 2dbe
000003f0: 38a5 0e3c 76a6 963e 4be9 25bd c15b ccbe

fc1.bias f4 [128]
-0.23290926 -0.13744733 0.13384555 -0.05403966 -0.31147012 0.08636948 -0.13584462 0.1476669
-0.22411467 -0.15542047 -0.00555854 -0.02187811 -0.12455389 -0.048577502 -0.014960965 -0.024349941
-0.1585885 -0.09598477 0.13209346 -0.031486165 0.0 -0.0034540857 -0.059251156 0.0
-0.060705017 -0.1613223 -0.09355775 -0.04019206 0.007889981 -0.044390276 0.059964616 0.090456806
-0.15403317 -0.05038583 -0.10103327 0.0 -0.18771234 0.0 0.0 -0.10429853
-0.077670835 0.055670075 -0.06890667 -0.18335569 0.0 -0.08028291 -0.026822353 -0.08945828
-0.14352427 -0.024595125 -0.23831832 0.1287579 -0.09652967 0.0 0.057081062 -0.18777199
-0.11853341 0.1995006 0.14286943 0.070403524 0.16631846 0.18803445 0.14563559 -0.014301883
-0.023128966 -0.2061252 0.08271655 0.0 -0.09313745 0.09258314 0.0 1.5455076e-05
-0.1287118 0.09953599 -0.120431855 -0.012473632 0.07868068 -0.044198245 -0.12963596 0.0011390541
-0.046497926 -0.1251595 0.07417601 -0.037459444 0.16843477 -0.075006425 -0.17004538 -0.13645138
-0.19540243 -0.0051261676 0.0 -0.12615491 0.0 0.0 -0.12146574 0.07210269
0.0070813657 -0.006424063 -0.027700547 -0.171438 -0.1258099 -0.100537926 0.123208396 -0.10727953
-0.20701492 -0.022694942 -0.12372121 -0.005826452 -0.032828353 -0.023924464 -0.0788975 -0.20349663
0.0 -0.1253413 0.0019561409 0.04113041 -0.06678697 -0.05398798 -0.005228726 0.0
-0.012087774 -0.11918546 -0.11872755 -0.14465348 0.0 0.0 0.110280804 -0.1155632
00000000: c47f 6ebe febe 0cbe cf0e 093e b158 5dbd
00000010: 0379 9fbe 7be2 b03d da1a 0bbe fe35 173e
00000020: 517e 65be 8b26 1fbe 6a24 b6bb b939 b3bc
00000030: 1c16 ffbd 34f9 46bd d61e 75bc 8779 c7bc
00000040: 0665 22be aa93 c4bd 8243 073e a3f7 00bd
00000050: 0000 0000 f15d 62bb 57b1 72bd 0000 0000
00000060: d3a5 78bd ac31 25be 359b bfbd 6ea0 24bd
00000070: fb44 013c 94d2 35bd 759d 753d 6b41 b93d
00000080: dfba 1dbe 5f61 4ebd 88ea cebd 0000 0000
00000090: aa37 40be 0000 0000 0000 0000 789a d5bd
000000a0: e311 9fbd 4e06 643d f11e 8dbd 98c1 3bbe
000000b0: 0000 0000 5e6b a4bd 8dba dbbc e735 b7bd
000000c0: 07f8 12be b77b c9bc b809 74be 1cd9 033e
000000d0: 59b1 c5bd 0000 0000 d5cd 693d 4d47 40be
000000e0: a5c1 f2bd e349 4c3e 5d4c 123e b92f 903d
000000f0: 634f 2a3e 1a8c 403e 7f21 153e 7252 6abc
00000100: f578 bdbc 7c12 53be 4b67 a93d 0000 0000
00000110: d9be bebd 3b9c bd3d 0000 0000 86a5 8137
00000120: 07cd 03be 86d9 cb3d faa4 f6bd 345e 4cbc
00000130: 5623 a13d 3809 35bd 4abf 04be 504c 953a
00000140: 9c74 3ebd d029 00be 98e9 973d 136f 19bd
00000150: 2a7a 2c3e f89c 99bd 6020 2ebe e9b9 0bbe
00000160: 9317 48be 69f9 a7bb 0000 0000 c12e 01be
00000170: 0000 0000 0000 0000 08c3 f8bd 93aa 933d
00000180: cd0a e83b f280 d2bb 42ec e2bc 718d 2fbe
00000190: 4fd4 00be d4e6 cdbd af54 fc3d 5fb5 dbbd
000001a0: b8fb 53be beea b9bc 8c61 fdbd d2eb bebb
000001b0: 0677 06bd 3dfd c3bc 0395 a1bd 6c61 50be
000001c0: 0000 0000 7859 00be 9932 003b 5c78 283d
000001d0: 9bc7 88bd 8022 5dbd bc55 abbb 0000 0000
000001e0: cd0b 46bc 8217 f4bd 6e27 f3bd 0b20 14be
000001f0: 0000 0000 0000 0000 e7da e13d 66ac ecbd

fc2.weight f4 [64, 128]
-0.013192796 0.12110415 -0.014794668 0.0065264883 0.15369841 -0.05297242 0.10612822 -0.17714421
0.27054802 0.084361754 -0.037936784 -0.0650649 0.15961562 -0.220557 0.028576717 0.039151013
0.23097941 0.043650635 -0.34958756 0.004405157 0.02108497 0.06717236 0.109109975 0.0761975
0.23999162 0.05696988 0.1170396 0.11193029 -0.10392887 -0.08396352 -0.30486834 -0.036934175
-0.0052571343 0.120802864 0.1291061 0.05012096 0.05966589 -0.060812958 -0.0688087 -0.62154585
0.117739975 -0.23562354 -0.7310293 -0.36009103 0.14575769 0.2135638 -0.17914416 -0.11461875
0.21537487 0.06915369 0.18434162 0.014125064 -0.008046471 -0.06079266 -0.22307359 0.056364443
-0.010610365 -0.24087937 -0.11448692 -0.3847022 -0.14599971 0.080291346 -0.14984521 0.12917335
0.012833232 0.07380262 -0.24581443 -0.1846677 -0.045401674 0.1317848 0.092384204 0.07689956
0.00022093531 -0.06522268 0.07275608 -0.007836725 0.0075650914 -0.0012597373 -0.2148196 -0.045831867
0.123017594 -0.14132228 -0.13432176 0.22353366 -0.15994455 0.12619857 0.053209614 0.08624764
0.032796618 -0.22203189 -0.12449586 0.12807608 0.00073847914 -0.064584404 0.08948929 0.11260055
-0.22480471 0.045047607 -0.20329428 0.37597305 0.15648116 0.14075428 -0.3037218 0.03056044
0.2939555 -0.17357226 0.010654475 -0.1349622 0.0660193 -0.12376271 0.05049065 0.12753843
0.124658644 0.15959096 0.08938049 -0.09026605 0.15645477 -0.10633436 -0.041277956 -0.067496486
-0.043481056 0.059142925 0.20820567 -0.10173703 -0.037150282 -0.10869875 -0.37713006 0.099397905
0.05266027 -0.17170784 0.26907703 -0.13518749 0.13863075 -0.1468221 -0.124662004 0.06684628
-0.14232638 0.053954944 -0.0016702877 0.09138379 0.13262896 -0.0298426 -0.027317043 0.14105307
0.16177395 -0.012117481 -0.10294837 0.061563265 -0.099749014 -0.1806306 -0.11328564 -0.022038484
-0.37674755 0.045034688 0.0036939094 -0.2022866 0.11194783 -0.13917282 0.052383017 0.077408575
-0.08521445 -0.100160666 -0.011465907 -0.010422398 -0.20362644 -0.24864617 -0.057814207 -0.30292824
-0.059739526 -0.081199735 -0.320222 -0.08871238 0.17572562 0.046540316 -0.11513671 0.102818586
-0.008129444 -0.020496313 0.03851025 -0.101538815 -0.03383961 -0.16496675 -0.09623344 -0.09672334
-0.16488865 -0.010239277 -0.054915007 -0.067415796 -0.17986314 0.21900862 -0.13855533 0.028257355
-0.141112 -0.072293155 -0.15545124 -0.091124706 0.037201107 -0.046115052 -0.034399815 0.09552498
-0.09210599 -0.14680503 -0.05200898 -0.12550256 0.021739844 0.024513643 -0.26832443 -0.08449091
-0.034454916 0.029268064 -0.098943934 -0.11108304 0.084588684 -0.060702473 -0.0635323 0.029497854
0.013253549 -0.04038181 -0.08629536 -0.044171378 0.033967238 -0.05225306 -0.008504139 0.095599435
0.079563715 -0.2727037 -0.11311605 0.115603805 0.16850099 -0.14675531 0.008088485 -0.079382345
-0.17391017 -0.023767399 0.065114126 -0.07436649 -0.03866906 -0.10210323 -0.13137956 0.01866614
0.09780814 -0.017132863 0.2771627 0.064294316 -0.07726338 -0.022541987 0.09657392 0.049275767
0.11862964 -0.23669086 0.09918471 -0.13181834 0.13403328 -0.27467945 -0.049322058 0.088102005
00000000: 9926 58bc 7405 f83d 5665 72bc 27dc d53b
00000010: 1e63 1d3e 9cf9 58bd c159 d93d 4b65 35be
00000020: 4585 8a3e dbc5 ac3d 9a63 1bbd bf40 85bd
00000030: 4772 233e b2d9 61be b819 ea3c d05c 203d
00000040: de85 6c3e 02cb 323d 24fd b2be 2359 903b
00000050: 63ba ac3c aa91 893d 0d75 df3d 6f0d 9c3d
00000060: 5dc0 753e 4059 693d 75b2 ef3d b53b e53d
00000070: a9d8 d4bd 11f5 abbd b417 9cbe 4a48 17bd
00000080: 0a44 acbb 7e67 f73d 6434 043e a34b 4d3d
00000090: 3864 743d 0217 79bd 93eb 8cbd a11d 1fbf
000000a0: a821 f13d 4c47 71be bc24 3bbf da5d b8be
000000b0: 8141 153e 78b0 5a3e 9171 37be 3cbd eabd
000000c0: 3b8b 5c3e 73a0 8d3d 0dc4 3c3e d06c 673c
000000d0: 58d5 03bc b901 79bd 676d 64be 67de 663d
000000e0: 19d7 2dbc 15a9 76be 1e78 eabd b0f7 c4be
000000f0: f380 15be ca6f a43d 0671 19be 0546 043e
00000100: 7a42 523c d425 973d c7b6 7bbe 8819 3dbe
00000110: 1bf7 39bd 98f2 063e ee33 bd3d 847d 9d3d
00000120: dfaa 6739 7893 85bd 2401 953d 9b65 00bc
00000130: 96e4 f73b c51d a5ba abf9 5bbe 32ba 3bbd
00000140: a6f0 fb3d cab6 10be a58b 09be 02e6 643e
00000150: 81c8 23be 333a 013e 53f2 593d 9aa2 b03d
00000160: bf55 063d 545c 63be aff7 febd 6026 033e
00000170: 7f96 413a d444 84bd 2946 b73d 1e9b e63d
00000180: 3533 66be d783 383d 602c 50be 8a7f c03e
00000190: 993c 203e e421 103e 6c81 9bbe e359 fa3c
000001a0: 5681 963e edbc 31be 1b90 2e3c 8833 0abe
000001b0: 2035 873d 4e77 fdbd 49cf 4e3d 6f99 023e
000001c0: 084d ff3d d06b 233e 1e0d b73d 68dd b8bd
000001d0: ae35 203e d4c5 d9bd 1313 29bd 993b 8abd
000001e0: 3119 32bd da3f 723d de33 553e 815b d0bd
000001f0: e52a 18bd 739d debd 3117 c1be 2191 cb3d
00000200: 4cb2 573d 2ed4 2fbe 77c4 893e 976e 0abe
00000210: 38f5 0d3e 8858 16be cb4e ffbd b4e6 883d
00000220: 02be 11be dcff 5c3d 8eed daba 6d27 bb3d
00000230: e3cf 073e 7878 f4bc fec7 dfbc 3770 103e
00000240: 12a8 253e 6688 46bc 98d6 d2bd c329 7c3d
00000250: 3649 ccbd 3af7 38be 4d02 e8bd 0d8a b4bc
00000260: 0ee5 c0be 4b76 383d 8415 723b 3824 4fbe
00000270: e744 e53d 5283 0ebe 938f 563d 6388 9e3d
00000280: ea84 aebd 0921 cdbd 80db 3bbc b5c2 2abc
00000290: 7383 50be 1a9d 7ebe 97ce 6cbd 6919 9bbe
000002a0: 6fb1 74bd 0c4c a6bd 23f4 a3be d6ae b5bd
000002b0: 6bf1 333e 0fa1 3e3d cccc ebbd 8d92 d23d
000002c0: 5c31 05bc e2e7 a7bc edbc 1d3d 95f3 cfbd
000002d0: 679b 0abd 0bed 28be 0a16 c5bd e316 c6bd
000002e0: 92d8 28be a4c2 27bc 8fee 60bd 4b11 8abd
000002f0: 0b2e 38be cc43 603e 73e1 0dbe f87b e73c
00000300: aa7f 10be 6f0e 94bd 9c2e 1fbe 979f babd
00000310: 3060 183d 23e3 3cbd d2e6 0cbd 9aa2 c33d
00000320: 11a2 bcbd 0f54 16be 5e07 55bd be83 00be
00000330: c217 b23c d6d0 c83c d261 89be 9209 adbd
00000340: 9920 0dbd 94c3 ef3c 1ea3 cabd 817f e3bd
00000350: d53c ad3d 28a3 78bd 391d 82bd 7ca5 f13c
00000360: 6a25 593c 6667 25bd 9fbb b0bd 0ced 34bd
00000370: 3b21 0b3d 4e07 56bd f254 0bbc a3c9 c33d
00000380: 4df2 a23d d29f 8bbe 63a9 e7bd b0c1 ec3d
00000390: 868b 2c3e 0647 16be 9185 043c 3693 a2bd
000003a0: 8215 32be d9b3 c2bc 8e5a 853d 754d 98bd
000003b0: 7363 1ebd 801b d1bd 5d88 06be bce9 983c
000003c0: a24f c83d 385a 8cbc 45e8 8d3e bdac 833d
000003d0: 433c 9ebd f9a9 b8bc 8cc8 c53d 63d5 493d
000003e0: 19f4 f23d 175f 72be 5a21 cb3d 63fb 06be
000003f0: 0540 093e c9a2 8cbe ed05 4abd d36e b43d

fc2.bias f4 [64]
-0.19217716 -0.08974338 -0.0051030354 -0.06715066 -0.13005209 -0.27518156 -0.17016307 -0.14633901
-0.00531403 -0.0077222707 -0.0063230684 0.057088405 0.122363634 -0.13781989 -0.03752517 -0.0167398
-0.07100022 0.018030299 -0.14273651 -0.012970514 -0.24881886 -0.052601714 0.10414241 -0.06269755
-0.08060882 -0.028382603 -0.023727898 -0.004468844 -0.04017558 -0.027815323 -0.029386397 -0.012372265
-0.15018846 -0.056830425 -0.013930114 -0.040897388 -0.01276215 -0.08190416 -0.037106596 -0.009976438
-0.0397399 -0.028149713 0.071322255 -0.028365595 -0.03099746 -0.027741052 0.022181718 -0.036655933
-0.03094299 -0.008038048 -0.29080135 -0.0843953 -0.11032347 -0.0865745 0.22192694 -0.0544268
-0.04369266 -0.07877381 -0.016919175 -0.10954811 -0.15425546 -0.014916624 -0.2801414 -0.0135828145
00000000: 17ca 44be 61cb b7bd 5d37 a7bb 4986 89bd
00000010: 602c 05be 99e4 8cbe 3a3f 2ebe e5d9 15be
00000020: 5121 aebb 1a0b fdbb be31 cfbb 88d5 693d
00000030: c999 fa3d a820 0dbe feb3 19bd e821 89bc
00000040: 9068 91bd 47b4 933c 8529 12be 4782 54bc
00000050: 5fca 7ebe e574 57bd 9e48 d53d 9367 80bd
00000060: 3d16 a5bd a282 e8bc 0261 c2bc 616f 92bb
00000070: 268f 24bd f6dc e3bc bebb f0bc 0ab5 4abc
00000080: 01cb 19be 05c7 68bd 223b 64bc 0584 27bd
00000090: 5618 51bc 5ebd a7bd 16fd 17bd 3774 23bc
000000a0: 4ec6 22bd 3a9a e6bc 6711 923d f75e e8bc
000000b0: 63ee fdbc 3441 e3bc 6fb6 b53c 8824 16bd
000000c0: 277c fdbc 04b2 03bc eae3 94be 71d7 acbd
000000d0: 45f1 e1bd f94d b1bd d140 633e a3ee 5ebd
000000e0: 13f7 32bd 2a54 a1bd 159a 8abc c25a e0bd
000000f0: 25f5 1dbe db64 74bc b26e 8fbe 748a 5ebc

fc3.weight f4 [64, 64]
-0.051684577 0.12117737 -0.1571354 -0.1115423 0.057677556 -0.2185324 0.017599443 -0.48913932
0.20890123 0.3037783 -0.042717364 -0.12725933 -0.15007778 0.102925174 0.12379653 -0.16609621
0.11394097 0.05418761 -0.081296004 -0.019082818 0.2283532 0.03171353 0.0077283056 0.2830166
-1.1194625 -0.037553426 -0.049925663 -0.008382245 -0.13949475 0.065829165 -0.1551486 -0.08878629
0.10734684 0.24055728 0.29250827 -0.17941228 -0.15119514 -0.35035604 0.0356548 0.17122275
-0.12415241 0.002636406 -0.10577927 -0.0727219 -0.0026485822 -0.6203767 0.15256676 0.08567566
0.033713356 0.1608352 -0.20285642 0.015178053 -0.0868114 -0.09233937 0.2938699 0.067471266
0.037052423 0.095307164 0.12578176 0.31427982 0.23363307 -0.006774787 0.117712885 -0.17534652
-0.38262504 -0.21009238 -0.06054832 -0.116540834 0.64437026 0.4401289 0.12885658 -0.24074347
-0.22731821 -0.020171521 0.08556368 -0.36005524 -0.15365317 0.10910235 0.14074522 -0.21263616
-0.022970304 -0.108855516 -0.6940718 0.18017201 -0.27985445 0.24466684 -0.28999946 -0.2235462
0.036385383 -0.24075693 0.09509561 0.050265417 0.1417944 -0.03023225 0.023123201 0.08523731
0.18379849 0.10483107 0.12287923 0.11113492 0.17076455 -0.36007786 0.0665798 -0.14867207
-0.81654423 0.020586172 -0.80422115 0.2066299 -0.18363231 0.75755346 0.0044691297 0.06496562
0.10725626 -0.10078936 -0.064652205 0.049491182 0.09917734 -0.028663201 0.45007622 -0.17624725
0.03473465 -0.06376247 0.48225978 -0.74482244 0.27531502 -0.14965326 -0.34113383 -0.09230158
-0.023721017 -0.19862835 0.06926296 0.017878802 -0.13364875 -0.14439045 0.03236367 0.017062414
0.026185343 0.24672998 -0.03156476 0.09582266 0.011008749 -0.015374199 -0.051138714 -0.039134894
0.24967256 -0.224632 -0.21683702 -0.034177084 -0.20012838 0.09700309 0.07825545 0.05350917
-0.9354251 0.16053057 0.053234935 -0.18860805 0.068594106 -0.14737894 -0.11001624 -0.03446808
0.12045846 0.093136586 -0.07823624 0.15003338 -0.08599907 0.060762554 -0.08442973 0.09328248
-0.12935601 -0.08106015 0.2985506 0.09715678 -0.07534421 -0.38427848 -0.18171972 -0.21487723
0.14635877 0.009144145 -0.1794985 -0.11822574 -0.06690945 0.09583547 -0.040604144 -0.19082412
0.19330235 0.112864956 0.25154725 -0.037449032 -0.28331372 -0.10136469 0.1647891 -0.008369425
-0.059787374 0.060949348 -0.04874411 -0.1796563 0.034308657 0.52336645 -0.32643774 0.08677338
-0.049660202 -0.087073475 0.25460264 -0.4091761 -0.47771263 -0.09218511 -0.101341635 0.0948681
0.11876816 -0.075782314 0.97209847 0.12955545 0.49639645 -0.054045457 0.7443622 0.1365568
-1.5228577 -0.08959575 0.061777703 -0.026050039 0.01074764 0.011657101 0.07441886 -0.101706676
0.13889883 -0.009814395 -0.0047004237 0.003965293 -0.34157997 -0.06243283 0.1087372 -0.18382357
0.33914208 -0.014880341 -0.2156927 -0.03478436 0.24745958 -0.71558726 -0.030945998 0.056122765
-0.017065253 0.020792896 0.11470754 -0.03853895 -0.06935587 -0.07983375 -0.2588821 0.19562188
-0.053130098 0.10717361 -0.07089657 0.88154787 0.45337835 0.061518632 0.19606185 -0.017411187
00000000: 35b3 53bd d72b f83d 1ae8 20be 4a70 e4bd
00000010: 4d3f 6c3d f5c6 5fbe b52c 903c 7870 fabe
00000020: 34ea 553e d488 9b3e 67f8 2ebd 4550 02be
00000030: fdad 19be 6fca d23d 0989 fd3d 2015 2abe
00000040: e259 e93d d4f3 5d3d 857e a6bd 9253 9cbc
00000050: 6cd5 693e 0ce6 013d ba3d fd3b 8de7 903e
00000060: 8c4a 8fbf 9fd1 19bd da7e 4cbd af55 09bc
00000070: b6d7 0ebe 71d1 863d 46df 1ebe 96d5 b5bd
00000080: a9d8 db3d a654 763e a5c3 953e dab7 37be
00000090: e6d2 1abe de61 b3be c40a 123d 0455 2f3e
000000a0: 9e43 febd 8ec7 2c3b cda2 d8bd 38ef 94bd
000000b0: d693 2dbb 02d1 1ebf 763a 1c3e b876 af3d
000000c0: 0417 0a3d fcb1 243e 98b9 4fbe 5ead 783c
000000d0: 2dca b1bd 6c1c bdbd 1e76 963e 602e 8a3d
000000e0: 48c4 173d 6730 c33d efcc 003e 49e9 a03e
000000f0: 823d 6f3e 08ff ddbb 7413 f13d 0a8e 33be
00000100: 6ee7 c3be 7522 57be 8401 78bd f6ac eebd
00000110: 73f5 243f 9358 e13e fbf2 033e 7585 76be
00000120: 1bc6 68be bf3e a5bc 033c af3d 2959 b8be
00000130: 4257 1dbe 0e71 df3d 841f 103e 4bbd 59be
00000140: 382c bcbc a4ef debd b1ae 31bf 037f 383e
00000150: 1549 8fbe f289 7a3e cf7a 94be 4ce9 64be
00000160: d708 153d fc88 76be 7dc1 c23d 1ce3 4d3d
00000170: 8d32 113e a0a9 f7bc de6c bd3c e690 ae3d
00000180: ac35 3c3e acb1 d63d 1ba8 fb3d b49a e33d
00000190: e7dc 2e3e 205c b8be fd5a 883d 7e3d 18be
000001a0: 0b09 51bf 55a4 a83c 70e1 4dbf ca96 533e
000001b0: 1c0a 3cbe 06ef 413f c771 923b b20c 853d
000001c0: 2ca9 db3d a76a cebd 6068 84bd 44b7 4a3d
000001d0: 7d1d cb3d 17cf eabc 6470 e63e 297a 34be
000001e0: ec45 0e3d e695 82bd c1ea f63e afac 3ebf
000001f0: 17f6 8c3e b43e 19be 18a9 aebe 9c08 bdbd
00000200: 9452 c2bc 3b65 4bbe bdd9 8d3d 9176 923c
00000210: 38db 08be 17db 13be c58f 043d 7ac6 8b3c
00000220: a582 d63c c9a6 7c3e 0d4a 01bd ac3e c43d
00000230: 0a5e 343c 10e4 7bbc d476 51bd e94b 20bd
00000240: 2aaa 7f3e ee05 66be 860a 5ebe 45fd 0bbd
00000250: 74ee 4cbe 8ea9 c63d 6544 a03d 6e2c 5b3d
00000260: 0578 6fbf 2062 243e e00c 5a3d 7822 41be
00000270: 117b 8c3d 81ea 16be 3250 e1bd 672e 0dbd
00000280: edb2 f63d 65be be3d 523a a0bd 5aa2 193e
00000290: 4820 b0bd 28e2 783d 7fe9 acbd e30a bf3d
000002a0: e775 04be dd02 a6bd a0db 983e 22fa c63d
000002b0: 114e 9abd 26c0 c4be bc14 3abe c708 5cbe
000002c0: 13df 153e 53d1 153c 74ce 37be 5620 f2bd
000002d0: d207 89bd 6345 c43d 8850 26bd 6667 43be
000002e0: 0df1 453e be25 e73d cdca 803e 2864 19bd
000002f0: 7f0e 91be 4a98 cfbd 79be 283e ea1f 09bc
00000300: 9be3 74bd 06a6 793d e7a7 47bd d2f7 37be
00000310: 3c87 0c3d 58fb 053f d922 a7be 3eb6 b13d
00000320: 7f68 4bbd 9453 b2bd 475b 823e 887f d1be
00000330: c096 f4be 8ccb bcbd 348c cfbd 354a c23d
00000340: b93c f33d c233 9bbd 72db 783f 2faa 043e
00000350: ad27 fe3e c55e 5dbd 858e 3e3f 8cd5 0b3e
00000360: 00ed c2bf fa7d b7bd 9e0a 7d3d e466 d5bc
00000370: df16 303c 6dfd 3e3c ea68 983d 974b d0bd
00000380: 7f3b 0e3e 8ecc 20bc 0306 9abb 4aef 813b
00000390: 92e3 aebe 91b9 7fbd 9cb1 de3d 3f3c 3cbe
000003a0: 08a4 ad3e accc 73bc 8cde 5cbe 0c7a 0ebd
000003b0: 0b66 7d3e ba30 37bf 7682 fdbc fce0 653d
000003c0: 6ecc 8bbc dd55 aa3c c9eb ea3d 05db 1dbd
000003d0: 730a 8ebd e17f a3bd 328c 84be 1a51 483e
000003e0: f29e 59bd d67d db3d 3932 91bd 1fad 613f
000003f0: 3521 e83e f6fa 7b3d 70c4 483e e8a1 8ebc

fc3.bias f4 [64]
-0.016493522 0.03508848 -0.057044763 -0.16578017 -0.07167756 0.09607646 -0.13796054 0.06216337
-0.0081138 0.07920375 0.0031139154 0.15116903 -0.013049605 0.019615235 0.020082768 -0.053783733
-0.014741579 0.014264733 0.050775394 0.024492988 -0.020873075 -0.040018026 -0.0338027 0.024610518
-0.024687223 0.02687802 -0.05645336 -0.019682052 0.04869845 0.056584474 0.030572806 -0.034836184
0.10118697 0.06621488 0.034419212 0.06545718 0.004803658 -0.06864011 0.025441425 -0.14097956
0.004554538 0.0036824336 -0.04124111 -0.065034315 0.038625624 -0.0354376 -0.033342004 0.039210506
0.021767719 -0.07599852 0.022241091 -0.017210549 0.15091975 0.030275598 0.13696128 -0.10070485
0.008004859 -0.07220547 -0.009307025 0.17505984 -0.06166179 -0.0183009 -0.079202265 0.030874245
00000000: 6c1d 87bc f0b8 0f3d c5a7 69bd 47c2 29be
00000010: afcb 92bd bcc3 c43d 8745 0dbe 059f 7e3d
00000020: beef 04bc 9335 a23d d512 4c3b 0ecc 1a3e
00000030: 03ce 55bc 21b0 a03c 9e84 a43c 554c 5cbd
00000040: aa86 71bc a0b6 693c dcf9 4f3d 85a5 c83c
00000050: 03fe aabc f1e9 23bd b374 0abd ff9b c93c
00000060: dc3c cabc 4b2f dc3c a33b 67bd 413c a1bc
00000070: 0778 473d 1fc5 673d d273 fa3c 63b0 0ebd
00000080: 1d3b cf3d ab9b 873d 29fb 0c3d 6a0e 863d
00000090: 0168 9d3b 3093 8cbd 896a d03c f25c 10be
000000a0: 3c3e 953b fc54 713b 70ec 28bd b630 85bd
000000b0: e735 1e3d 0427 11bd a091 08bd 329b 203d
000000c0: 3752 b23c 1da5 9bbd f332 b63c 23fd 8cbc
000000d0: b58a 1a3e 8804 f83c 943f 0c3e 583e cebd
000000e0: d026 033c 76e0 93bd 7e7c 18bc e342 333e
000000f0: 1391 7cbd c5eb 95bc cc34 a2bd fceb fc3c

fc4.weight f4 [32, 64]
-0.100470185 -0.085496515 0.34025383 0.013113437 -0.15104097 -0.116747454 0.4638588 0.10401645
0.020984933 -0.14311947 -0.052531812 -0.2846872 0.14411417 -0.074694455 0.27074677 -0.16032374
-0.05016005 0.0296817 -0.15430765 -0.12766884 -0.026527522 0.034945402 0.10911839 -0.2115798
-0.25227392 0.25331247 -0.2782093 0.09181272 -0.17423894 -0.0056529273 -0.35503513 0.025543537
0.17854556 -0.09059355 0.07739421 0.06254248 -0.13237388 0.0063677244 0.18468224 -0.013229225
-0.07780287 -0.050462388 0.033403415 0.09052269 -0.18754864 0.06712558 -0.018178565 -0.09548448
0.13518985 -0.1061833 -0.017610608 0.006333589 0.18241249 -0.08746063 0.1808002 -0.0579516
-0.037489485 -0.027022107 0.1998848 -0.212058 0.26470882 0.18870513 -0.13809615 -0.23053537
0.16222242 0.09647441 -0.16201077 -0.16387437 0.15818371 0.30699944 0.059550762 0.20746028
-0.24349803 0.058260057 0.24788496 0.21748307 -0.36734226 -0.4600301 0.3641788 0.011449295
0.20209439 -0.26476127 0.021519985 0.1600031 -0.34263125 -0.12189544 -0.32732415 -0.03447706
-0.27336422 0.02680753 0.23893493 -0.056928165 1.060823 -0.004360679 0.068321325 -0.2656427
-0.0852599 -0.07692592 -0.3186671 0.27683023 -0.07868039 0.035640847 -0.0597519 -0.051444937
-0.27831298 0.45605123 -0.124642715 -0.23889714 -0.032178685 -0.029904446 0.10076647 0.0960466
-0.027633268 0.16726828 -0.8735159 0.10747184 0.13669103 0.5577634 0.19799998 0.028698811
-0.10967234 -0.041617464 0.41697773 0.3359526 -0.36371532 0.33422244 -0.0990343 -0.23064674
0.16063268 0.08160129 -0.20667882 0.1431515 0.23785704 -0.15515229 0.14982387 0.12504442
0.18753083 -0.1850736 0.06375018 -0.20218863 0.027286028 0.07283367 -0.1818891 -0.14816849
0.059108656 -0.011986806 -0.054673698 0.027969792 0.28116444 0.03823253 0.21252692 -0.117952965
-0.13293664 -0.33310878 0.1365343 -0.047197133 0.13145472 0.22204149 0.13135085 -0.23147482
0.039784923 0.21371543 0.051044792 0.057112228 0.05641966 0.009053552 0.18985595 0.16470082
0.01369448 0.120812245 -0.11429854 0.049196966 0.0142699955 0.15702897 -0.2163417 0.26731536
-0.163679 -0.12954894 -0.10959377 -0.04592311 0.12712176 -0.3351852 -0.19668159 -0.36761272
-0.03305818 -0.14597124 0.04355401 0.04460975 0.13614492 0.10495568 -0.1254304 0.20235778
-0.14668682 0.4522624 -0.20382905 -0.7542095 -0.049432583 -1.2715228 0.48041344 -0.23743841
0.035628475 0.6920389 -0.2961674 1.0248778 0.14087462 -0.17855069 -1.1143526 0.027709492
-0.102372915 0.22694117 -0.13376416 -0.21287404 0.9140885 0.25286242 -0.09043854 0.30654445
-0.28413665 0.054234173 0.40164578 0.11912353 0.8912781 0.11516136 -0.111911505 0.1599383
-1.532909 -0.22064778 -0.083970614 -0.02023328 0.41715482 0.19560651 -0.17294587 -0.36754072
-0.18743335 0.44531658 -0.35845506 0.23896489 0.08647838 -0.029289449 0.12854257 -0.14860383
0.1743252 -0.41329706 0.18702455 0.14812565 1.3957876 0.23027427 0.67008555 -1.0960242
0.03922799 -0.1352803 0.13106856 1.5914942 0.20443273 0.26499248 -0.19927174 -0.44169128
00000000: 50c3 cdbd cc18 afbd c035 ae3e bed9 563c
00000010: 7caa 1abe 4a19 efbd e77e ed3e 9406 d53d
00000020: 98e8 ab3c e98d 12be 992b 57bd 85c2 91be
00000030: aa92 133e 68f9 98bd 529f 8a3e e82b 24be
00000040: a074 4dbd 0927 f33c d302 1ebe 9fbb 02be
00000050: 3f50 d9bc e922 0f3d 7679 df3d 60a8 58be
00000060: 0c2a 81be 2cb2 813e 7371 8ebe 4f08 bc3d
00000070: b16b 32be 313c b9bb 2ac7 b5be ae40 d13c
00000080: a6d4 363e 1c89 b9bd db80 9e3d 4616 803d
00000090: 058d 07be 58a8 d03b 571d 3d3e 64bf 58bc
000000a0: 1c57 9fbd a6b1 4ebd 05d2 083d f663 b93d
000000b0: c00c 40be 2379 893d 37eb 94bc 5e8d c3bd
000000c0: 356f 0a3e a176 d9bd 1f44 90bc ff89 cf3b
000000d0: 57ca 3a3e 8f1e b3bd b023 393e a85e 6dbd
000000e0: 938e 19bd 775d ddbc 9aae 4c3e bb25 59be
000000f0: ea87 873e eb3b 413e 1469 0dbe 7711 6cbe
00000100: a21d 263e 6094 c53d 27e6 25be afce 27be
00000110: e9fa 213e 082f 9d3e 80eb 733d 7870 543e
00000120: 8c57 79be 19a2 6e3d 8ed5 7d3e e2b3 5e3e
00000130: 4914 bcbe 1189 ebbe a575 ba3e d395 3b3c
00000140: d5f1 4e3e ca8e 87be ae4a b03c dad7 233e
00000150: 5d6d afbe 51a4 f9bd 0897 a7be d137 0dbd
00000160: 65f6 8bbe 779b db3c 5cab 743e 822d 69bd
00000170: 0cc9 873f 07e4 8ebb 0dec 8b3d 5202 88be
00000180: be9c aebd 568b 9dbd 5628 a3be b1bc 8d3e
00000190: 2f23 a1bd 23fc 113d 69be 74bd edb7 52bd
000001a0: 0a7f 8ebe 8c7f e93e ae44 ffbd 74a1 74be
000001b0: cccd 03bd 2bfa f4bc a75e ce3d 14b4 c43d
000001c0: 2a5f e2bc 6048 2b3e bd9e 5fbf 321a dc3d
000001d0: bcf8 0b3e 95c9 0e3f 82c0 4a3e c519 eb3c
000001e0: e49b e0bd 1377 2abd 1b7e d53e fb01 ac3e
000001f0: e538 babe 341f ab3e 7fd2 cabd a92e 6cbe
00000200: e57c 243e 941e a73d 9da3 53be 4f96 123e
00000210: cc90 733e 3ee0 1ebe 6e6b 193e a50b 003e
00000220: 1508 403e ef83 3dbe 748f 823d 890a 4fbe
00000230: f386 df3c d229 953d 2341 3abe 7bb9 17be
00000240: eb1b 723d 4f64 44bc 87f1 5fbd e820 e53c
00000250: c9f4 8f3e b799 1c3d a8a0 593e 5391 f1bd
00000260: 8b20 08be 3c8d aabe a6cf 0b3e c851 41bd
00000270: 119c 063e d85e 633e d680 063e bc07 6dbe
00000280: 84f5 223d 38d8 5a3e 5814 513d 83ee 693d
00000290: 4d18 673d 5955 143c 9969 423e 55a7 283e
000002a0: d05e 603c 696c f73d 5a15 eabd c282 493d
000002b0: b3cc 693c 34cc 203e ae88 5dbe 8fdd 883e
000002c0: 789b 27be 7aa8 04be b372 e0bd df19 3cbd
000002d0: 352c 023e 659d abbe e666 49be bc37 bcbe
000002e0: 0468 07bd 7c79 15be b165 323d b7b8 363d
000002f0: 9369 0b3e 01f3 d63d d470 00be e136 4f3e
00000300: 1235 16be f08e e73e 90b8 50be e013 41bf
00000310: d279 4abd 42c1 a2bf c0f8 f53e 0e23 73be
00000320: 2aef 113d 7629 313f 41a3 97be 322f 833f
00000330: 7041 103e fed5 36be 1ba3 8ebf 04ff e23c
00000340: e4a8 d1bd 4463 683e 79f9 08be a7fb 59be
00000350: b401 6a3f 2f77 813e d737 b9bd 65f3 9c3e
00000360: 5c7a 91be a724 5e3d 84a4 cd3e 0af7 f33d
00000370: cd2a 643f b8d9 eb3d dc31 e5bd dec6 233e
00000380: 5d36 c4bf 7ef1 61be c9f8 abbd 43c0 a5bc
00000390: 5195 d53e 134d 483e b918 31be 4c2e bcbe
000003a0: 87ee 3fbe 8900 e43e 6c87 b7be 36b3 743e
000003b0: 941b b13d 6df0 efbc aaa0 033e 9a2b 18be
000003c0: 4e82 323e ac9b d3be 5d83 3f3e 40ae 173e
000003d0: 2ba9 b23f 05cd 6b3e ba8a 2b3f 854a 8cbf
000003e0: 87ad 203d eb86 0abe d636 063e 15b6 cb3f
000003f0: d056 513e 18ad 873e e40d 4cbe 5c25 e2be

fc4.bias f4 [32]
-0.1345399 0.08489081 0.038782813 0.013065696 -0.07195694 -0.06632612 -0.04713531 0.09403261
-0.095980324 -0.026549159 0.058777355 -0.11035078 -0.009198947 -0.06279533 -0.06255782 0.08534459
-0.09068858 0.11498718 0.023722142 0.032317784 -0.028865095 -0.041632578 -0.01089397 -0.043210015
-0.02675082 -0.010784841 0.0 -0.2610902 0.10040413 0.10109621 0.002561757 0.0
00000000: d4c4 09be 3cdb ad3d bada 1e3d 8011 563c
00000010: 295e 93bd fdd5 87bd f410 41bd 2b94 c03d
00000020: 5591 c4bd 9f7d d9bc 86c0 703d 97ff e1bd
00000030: 2eb7 16bc d79a 80bd 501e 80bd 25c9 ae3d
00000040: efba b9bd 667e eb3d f054 c23c a75f 043d
00000050: 7e76 ecbc ec86 2abd 9f7c 32bc fcfc 30bd
00000060: 8924 dbbc e7b2 30bc 0000 0000 9dad 85be
00000070: aea0 cd3d 880b cf3d 27e3 273b 0000 0000

fc5.weight f4 [32, 32]
0.000215263 -0.22287236 0.20849442 0.3790934 0.061111752 -0.36712766 -0.2050457 -0.044074647
-0.11230744 -0.124667294 0.00084627006 -0.033643764 -0.37102863 0.09284101 -0.1804114 0.13676386
0.029277569 0.028182304 -0.08586977 -0.24805164 0.07618154 0.16911715 -0.10197078 0.26756036
-0.03911772 0.20671245 -0.099338174 0.22357339 0.19334744 0.06811691 -0.2985057 -0.14507195
-0.10196152 -0.28332055 0.04943548 0.6447305 -0.10564929 0.14857428 -0.22375739 0.07678777
0.30030316 0.24898371 0.106636785 -0.092617236 0.13567533 0.042270944 -0.045584466 0.19485499
0.15359086 0.17733875 0.14802584 0.07289468 -0.08387369 -0.11722043 -0.20777188 0.013557911
0.20682186 -0.12681875 0.110892676 0.21128087 0.27176577 0.026653321 0.07374202 0.09016734
-0.17095031 -0.12675463 -0.25126904 0.13763072 0.118611716 0.12495585 0.079273835 -0.06709718
0.055519 -0.07925808 -0.06335533 0.35834813 -0.055122484 -0.14632396 -0.109605685 -0.1907939
0.11486623 0.09888772 -0.4467122 -0.08436901 -0.09961494 0.43776673 0.068700165 0.08621639
0.25519684 0.021292487 -0.32780358 0.108636975 -0.1911777 9.0479916e-05 -0.013900041 0.15945883
-0.11291199 0.00032574078 -0.0799235 0.7082638 0.031433214 -0.1405024 -0.15722458 0.16972882
0.35721534 0.5046942 -0.0246443 -0.04393537 0.06393892 0.08682366 0.072744265 -0.029895447
0.11287754 0.051370073 -0.09967647 -0.36487547 0.031053174 0.08741177 0.31582925 -0.1594957
0.2378545 -0.27762976 -0.00063599664 -0.049804166 0.10737387 -0.17965183 -0.19442712 -0.14232133
0.22793171 0.012840652 -0.082881935 0.14146943 -0.321022 -0.19938491 0.029462453 -0.27600133
-0.015883744 -0.27380103 -0.086043656 -0.038883455 -0.17928712 0.03140331 0.064092316 -0.22437128
0.04325167 -0.08204316 -0.22502404 -0.24752082 0.058602706 -0.021461792 -0.14633898 0.23190452
0.30008218 -0.17047055 -0.011295094 -0.28946194 0.07312743 0.017413916 -0.18704034 -0.23995855
0.11190528 0.1096136 0.13697162 0.6778855 -0.3169506 -0.20710593 0.2261801 -0.19302359
0.19838442 -0.1287127 0.3860007 -0.028455712 0.10499039 0.14586058 -0.23722549 0.26798928
-0.07722654 0.008390744 -0.097076006 -0.12424498 0.06887805 0.07274643 -0.36568788 0.1116468
0.16776118 0.10184 -0.06933235 -0.076858796 -0.04425946 -0.07004032 0.0074730655 0.038553797
-0.16112377 0.16474134 -0.21360399 -0.2390324 -0.028991723 -0.2446287 -0.28907898 0.10351924
0.28990397 0.005948068 0.19046879 0.0664341 -0.16277538 -0.33213785 -0.2568802 -0.24107084
-0.11273951 -0.2909295 0.069999985 -0.014738089 0.0684501 0.10319146 -0.042965077 -0.27878925
0.02803552 -0.08725584 0.029338583 -0.077963434 0.092926264 0.049411856 -0.39748204 -0.2755729
0.021861693 -0.035181087 -0.09625968 0.0074434113 -0.026051192 -0.22371718 -0.1677351 -0.26690462
0.032777928 -0.21440957 0.20090137 -0.025973795 0.14381362 0.32739484 0.103842825 -0.22920886
0.23805028 -0.14582236 0.0728406 -0.20362467 0.1302183 -0.09927564 -0.26363 -0.04745779
0.07467434 -0.12600479 0.17184228 0.20771822 -0.20423128 0.05633628 0.030684786 0.013606949
00000000: 39b8 6139 a738 64be 907f 553e 8818 c23e
00000010: 5150 7a3d 28f8 bbbe 80f7 51be 9e87 34bd
00000020: 7101 e6bd 9151 ffbd 39d8 5d3a 0bce 09bd
00000030: 77f7 bdbe 6d23 be3d c4bd 38be d30b 0c3e
00000040: 83d7 ef3c 93de e63c 7ddc afbd 4001 7ebe
00000050: 1105 9c3d 0c2d 2d3e 0ed6 d0bd acfd 883e
00000060: e739 20bd 6eac 533e d071 cbbd 6cf0 643e
00000070: dffc 453e e180 8b3d bdd5 98be be8d 14be
00000080: 34d1 d0bd 640f 91be dc7c 4a3d 0f0d 253f
00000090: a85e d8bd db23 183e a820 65be e842 9d3d
000000a0: 56c1 993e 96f5 7e3e 6364 da3d 1bae bdbd
000000b0: 79ee 0a3e 4c24 2d3d c7b6 3abd 1188 473e
000000c0: ec46 1d3e 4a98 353e 1694 173e ce49 953d
000000d0: f8c5 abbd 4411 f0bd 27c2 54be 0022 5e3c
000000e0: 1cc9 533e c6dc 01be b31b e33d 035a 583e
000000f0: e224 8b3e 1158 da3c 0e06 973d a8a9 b83d
00000100: 990d 2fbe f7cb 01be 56a6 80be 11ef 0c3e
00000110: b3ea f23d dae8 ff3d 525a a23d 3f6a 89bd
00000120: e467 633d 0f52 a2bd 70c0 81bd 6879 b73e
00000130: 1dc8 61bd f3d5 15be f278 e0bd 7a5f 43be
00000140: fc3e eb3d a585 ca3d 76b7 e4be a9c9 acbd
00000150: eb02 ccbd f622 e03e acb2 8c3d 3892 b03d
00000160: 29a9 823e 956d ae3c dfd5 a7be 107d de3d
00000170: 16c4 43be 09c0 bd38 ffbc 63bc 2d49 233e
00000180: 673e e7bd 30c8 aa39 efae a3bd c750 353f
00000190: 1dc0 003d dcdf 0fbe 7bff 20be 64cd 2d3e
000001a0: eee4 b63e a433 013f d8e2 c9bc 93f5 33bd
000001b0: 69f2 823d 9ad0 b13d f2fa 943d 4ce7 f4bc
000001c0: 572c e73d 6d69 523d 2d23 ccbd f5d0 babe
000001d0: 3a63 fe3c f104 b33d 5fb4 a13e d752 23be
000001e0: 2190 733e 7d25 8ebe 03b9 26ba 74ff 4bbd
000001f0: d5e6 db3d a6f6 37be e717 47be afbc 11be
00000200: ee66 693e 9961 523c 01be a9bd 5ddd 103e
00000210: ff5c a4be 8f2b 4cbe 3e5b f13c 0c50 8dbe
00000220: a01e 82bc a62f 8cbe a837 b0bd 4244 1fbd
00000230: 0b97 37be c2a0 003d d542 833d 96c1 65be
00000240: aa28 313d 3f06 a8bd b46c 66be 1976 7dbe
00000250: 6409 703d a4d0 afbc e3d9 15be 6178 6d3e
00000260: 5fa4 993e d58f 2ebe 0f0f 39bc 5b34 94be
00000270: d6c3 953d a1a7 8e3c 8187 3fbe b2b7 75be
00000280: 982e e53d 187d e03d 4a42 0c3e e789 2d3f
00000290: 5947 a2be 9413 54be c29b 673e faa7 45be
000002a0: 4925 4b3e 43cd 03be e2a1 c53e f41b e9bc
000002b0: 3405 d73d 7a5c 153e 3deb 72be e435 893e
000002c0: f328 9ebd 5579 093c c9cf c6bd 2774 febd
000002d0: ef0f 8d3d 15fc 943d 713b bbbe 14a7 e43d
000002e0: 96c9 2b3e 7d91 d03d 1efe 8dbd 2568 9dbd
000002f0: 6849 35bd 4d71 8fbd 9ee0 f43b 96ea 1d3d
00000300: a1fd 24be f4b1 283e 01bb 5abe e9c4 74be
00000310: 0d80 edbc f27f 7abe 2902 94be e501 d43d
00000320: 4b6e 943e 03e8 c23b 400a 433e 9a0e 883d
00000330: 97ae 26be f90d aabe cd85 83be 46db 76be
00000340: f9e3 e6bd b6f4 94be 275c 8f3d 0778 71bc
00000350: 912f 8c3d 0b56 d33d 26fc 2fbd 77bd 8ebe
00000360: bfaa e53c 31b3 b2bd 7857 f03c 4bab 9fbd
00000370: 2050 be3d 1664 4a3d c482 cbbe e417 8dbe
00000380: 4b17 b33c 0b1a 10bd cc23 c5bd dce7 f33b
00000390: 4f69 d5bc 1e16 65be c0c2 2bbe b9a7 88be
000003a0: 2642 063d 2f8e 5bbe 17b9 4d3e ffc6 d4bc
000003b0: e143 133e 4ca0 a73e 8cab d43d bab5 6abe
000003c0: 74c3 733e 7552 15be 742d 953d fc82 50be
000003d0: f257 053e 0751 cbbd 83fa 86be 1963 42bd
000003e0: dcee 983d 6607 01be 6cf7 2f3e 16b4 543e
000003f0: 0122 51be dfc0 663d a95e fb3c aeef 5e3c

fc5.bias f4 [32]
0.092025176 0.11769771 -0.0075747003 0.08824483 -0.16395031 -0.098623134 -0.027844261 -0.15629908
0.10676362 -0.32133985 0.12724587 -0.09161571 0.12694165 0.06313597 0.018498775 -0.037596013
0.106049776 0.26699048 0.0 -0.03766776 0.1177868 0.0 -0.07942896 -0.07617014
0.0 0.079366475 -0.05059226 -0.16038443 -0.0020025899 -0.12696 0.12231661 -0.27386576
00000000: b277 bc3d 7f0b f13d 3135 f8bb b5b9 b43d
00000010: 97e2 27be edfa c9bd a619 e4bc de0c 20be
00000020: e3a6 da3d a886 a4be be4c 023e 04a1 bbbd
00000030: fefc 013e 6e4d 813d be8a 973c 47fe 19bd
00000040: a030 d93d fab2 883e 0000 0000 8249 1abd
00000050: 353a f13d 0000 0000 a7ab a2bd 17ff 9bbd
00000060: 0000 0000 e48a a23d d439 4fbd d13b 24be
00000070: e23d 03bb cd01 02be 2181 fa3d 2238 8cbe

fc6.weight f4 [64, 32]
-0.33303627 -0.18012995 0.2624119 -0.13390641 0.021199157 -0.36177105 0.027628044 -0.21170664
0.01554953 -0.15289865 -0.0001622771 -0.4231797 -0.02575199 0.028675605 -0.1349273 0.19527905
-0.029223321 0.053758305 0.017958706 -0.14986059 0.1230921 0.10310551 0.06832866 -0.2075938
-0.083224274 -0.071219064 -0.08877685 -0.07517645 0.050488155 -0.05529237 0.08107262 -0.1320673
0.03212496 -0.4603565 0.16288981 0.20402193 -0.086718716 0.06913023 0.01918032 0.21874279
0.020369668 -0.14907524 0.08415448 0.03638191 0.035423577 -0.029550675 -0.02839611 0.05456445
-0.1410012 -0.041040726 0.0050964165 0.08011903 0.03817658 0.048692454 0.0007109573 0.08192876
0.008250378 -0.24756315 0.20971125 -0.12421806 0.07609284 0.09394145 0.02137447 0.36217996
-0.027803013 0.09282775 -0.20149559 0.086173445 -0.07992401 0.04744912 0.2615832 -0.20989987
-0.18089749 -0.07621474 -0.056761026 -0.0045363638 -0.025330437 -0.17020604 0.17245387 -0.21901222
-0.110207014 -0.13737935 -0.20656776 -0.21490681 0.09199586 0.11267312 -0.10538228 -0.36836958
-0.028946381 -0.17319348 0.222323 -0.17254171 0.02324807 -0.08852478 0.11672491 0.1501269
0.05036735 -0.03406151 0.039998062 0.054026008 0.01068623 0.10440304 -0.06597307 0.08301419
0.063149445 -0.20592348 0.04228089 -0.051786758 0.022545723 -0.03018514 0.11092846 -0.1644373
-0.22024079 -0.045391608 -0.19335982 -0.0029725032 -0.34759447 -0.11293106 0.11627837 -0.21976565
-0.08187559 0.33005288 -0.20619732 -0.15288597 -0.30155602 0.18261786 -0.10855043 -0.064008564
0.064081036 -0.03768477 -0.042218685 -0.08468343 0.051595632 0.024528643 -0.2467805 0.017674088
-0.118524544 -0.5747959 0.07540797 -0.17486599 0.11842655 0.24299212 -0.04615736 0.034323044
0.17675926 0.174399 -0.077402845 -0.040747214 0.24619628 0.07723743 -0.061325498 -0.08471889
0.10605117 0.012959301 0.00041055024 -0.17242251 0.058011703 -0.12405473 0.11131585 -0.32948467
0.122936815 -0.12246804 -0.004992016 0.00076848274 -0.31942287 -0.13294667 -0.33118635 -0.13062972
-0.09735968 -0.020360306 -0.28751382 -0.20076953 -0.054034684 -0.05940718 -0.20747909 -0.12711582
-0.13495988 0.13795607 0.041594665 0.20928825 0.13355623 0.023602191 0.07288908 0.117566265
-0.01966448 0.16885829 0.08389249 -0.12499856 -0.003148933 -0.020206288 0.17505838 0.049297664
-0.12830724 -0.012878139 -0.08728153 0.20976202 0.11409275 -0.022857348 0.052339993 0.034541596
-0.4620178 -0.044800147 -0.025955986 0.30021283 -0.098910674 -0.1154738 0.11751032 0.026190788
0.24075957 0.07293488 0.14322773 0.07587891 0.0037127708 0.021287631 0.2565377 -0.11754001
-0.06767421 -0.062220324 0.33040792 0.021759126 -0.073105164 0.047657866 -0.11468593 0.116062455
0.066883184 0.017154299 0.11767332 -0.1046208 0.239248 0.16000274 0.17652391 0.27335253
-0.11290535 -0.03628071 0.011297172 -0.08350208 -0.13869151 -0.14546621 -0.14055444 -0.27882412
-0.061053168 -0.13060468 -0.2763393 0.065521374 0.039740615 -0.18499178 0.10931928 -0.0060667424
-0.030799763 0.12268384 -0.14684178 -0.03195124 0.08326773 -0.13106509 -0.11438063 -0.032018293
00000000: bb83 aabe fc73 38be da5a 863e c31e 09be
00000010: dba9 ad3c 0e3a b9be 3554 e23c a0c9 58be
00000020: 75c3 7e3c 7791 1cbe ed28 2ab9 02ab d8be
00000030: d6f5 d2bc 1ae9 ea3c 622a 0abe 3bf7 473e
00000040: bf65 efbc ab31 5c3d 231e 933c 0e75 19be
00000050: b617 fc3d fb28 d33d e6ef 8b3d 7893 54be
00000060: 7d71 aabd 4ddb 91bd a3d0 b5bd 1cf6 99bd
00000070: abcc 4e3d 417a 62bd 6709 a63d a63c 07be
00000080: 7695 033d d9b3 ebbe 96cc 263e 20eb 503e
00000090: 9599 b1bd 2694 8d3d 0c20 9d3c 1cfe 5f3e
000000a0: 4ade a63c 2ea7 18be 2f59 ac3d 3305 153d
000000b0: 5018 113d 4214 f2bc f59e e8bc f97e 5f3d
000000c0: 9e62 10be 521a 28bd d7ff a63b 7215 a43d
000000d0: 0c5f 1c3d bd71 473d 895f 3a3a 44ca a73d
000000e0: 982c 073c 3281 7dbe 8cbe 563e 0a66 febd
000000f0: 90d6 9b3d 6064 c03d 8319 af3c a76f b93e
00000100: 25c3 e3bc 7a1c be3d dc54 4ebe b47b b03d
00000110: 33af a3bd 025a 423d 3cee 853e feef 56be
00000120: 313d 39be 7916 9cbd 407e 68bd c7a5 94bb
00000130: c781 cfbc 7e4a 2ebe bf97 303e bd44 60be
00000140: 37b4 e1bd 2cad 0cbe 8086 53be 8810 5cbe
00000150: 5368 bc3d 2ac1 e63d aad2 d7bd f09a bcbe
00000160: f620 edbc a259 31be a4a8 633e c6ae 30be
00000170: bd72 be3c 7b4c b5bd 780d ef3d deba 193e
00000180: ff4d 4e3d 1584 0bbd 02d5 233d 604a 5d3d
00000190: 4c15 2f3c 43d1 d53d e41c 87bd 5803 aa3d
000001a0: 7f54 813d 9bdd 52be ba2e 2d3d 5a1e 54bd
000001b0: cfb1 b83c d446 f7bc 762e e33d 4062 28be
000001c0: cd86 61be 8dec 39bd 1e00 46be 54ce 42bb
000001d0: e7f7 b1be 6648 e7bd 5b23 ee3d 3f0a 61be
000001e0: 64ae a7bd b1fc a83e 6425 53be 248e 1cbe
000001f0: 8d65 9abe 2d00 3b3e b04f debd ec16 83bd
00000200: eb3c 833d 585b 1abd 80ed 2cbd 826e adbd
00000210: f155 533d 4bf0 c83c 07b4 7cbe 40c9 903c
00000220: ffbc f2bd d325 13bf 7e6f 9a3d 1210 33be
00000230: 9e89 f23d edd2 783e 800f 3dbd 5296 0c3d
00000240: 6100 353e a795 323e 6285 9ebd 8de6 26bd
00000250: e11a 7c3e a82e 9e3d 7230 7bbd 1981 adbd
00000260: 5b31 d93d 3f53 543c 1f3f d739 878f 30be
00000270: ae9d 6d3d 6810 febd 90f9 e33d 37b2 a8be
00000280: 4cc6 fb3d 86d0 fabd 1194 a3bb 0174 493a
00000290: 658b a3be 2c23 08be 4291 a9be ccc3 05be
000002a0: 8364 c7bd a8ca a6bc 0335 93be 8796 4dbe
000002b0: 7953 5dbd f154 73bd 6675 54be a62a 02be
000002c0: ec32 0abe 5b44 0d3e 2b5f 2a3d a94f 563e
000002d0: f7c2 083e 6259 c13c df46 953d 95c6 f03d
000002e0: 6717 a1bc 30e9 2c3e d3cf ab3d 3fff ffbd
000002f0: 545e 4ebb a887 a5bc 8142 333e 59ec 493d
00000300: f962 03be d4fe 52bc a9c0 b2bd dbcb 563e
00000310: 76a9 e93d 553f bbbc 7662 563d 7d7b 0d3d
00000320: 998d ecbe 5c80 37bd a6a1 d4bc 7fb5 993e
00000330: ae91 cabd 877d ecbd 40a9 f03d 108e d63c
00000340: ad89 763e e25e 953d 4aaa 123e 6766 9b3d
00000350: f551 733b 6663 ae3c e958 833e d1b8 f0bd
00000360: c798 8abd bdda 7ebd 3a2b a93e 3240 b23c
00000370: 29b8 95bd e534 433d 75e0 eabd 27b2 ed3d
00000380: 0dfa 883d 2c87 8c3c b6fe f03d 6e43 d6bd
00000390: 6dfd 743e c2d7 233e afc2 343e ddf4 8b3e
000003a0: ec3a e7bd 159b 14bd c617 393c 2303 abbd
000003b0: 2605 0ebe 18f5 14be 81ed 0fbe 09c2 8ebe
000003c0: e312 7abd 3cbd 05be 587c 8dbe 1230 863d
000003d0: 0ec7 223d 7c6e 3dbe c9e2 df3d 86cb c6bb
000003e0: c94f fcbc aa41 fb3d b15d 16be 4edf 02bd
000003f0: 4688 aa3d ed35 06be 6440 eabd 9d25 03bd

fc6.bias f4 [64]
-0.086603284 -0.05237211 -0.018803475 -0.004530292 0.1301943 -0.03174012 0.0 -0.0031798023
0.105742015 -0.05198454 0.0052519594 -0.050022483 0.07805395 -0.011961499 -0.048902966 0.15319213
0.09736455 -0.007558388 -0.010410739 -0.059757024 0.0 0.0 0.14270476 0.13092603
-0.03496184 0.12363077 0.15280075 0.07982503 -0.006166739 -0.022425316 0.0 -0.007639992
-0.0027881244 0.12059242 -0.03638453 -0.07399242 0.12771183 0.16754879 -0.020809531 0.11416543
-0.020587312 0.16412595 -0.008811694 0.0 -0.0060054604 0.12317137 0.15918873 0.11111162
-0.097112164 -0.034367155 0.16973549 0.15244427 -0.028588837 0.16318573 0.15915109 -0.021736339
-0.036526065 0.0 0.13427268 -0.034617744 0.0 0.008949013 0.12374776 -0.093006164
00000000: 105d b1bd 2384 56bd bf09 9abc d872 94bb
00000010: a851 053e ee01 02bd 0000 0000 3b64 50bb
00000020: 458f d83d beed 54bd a118 ac3b 60e4 4cbd
00000030: c0da 9f3d 2afa 43bc 7a4e 48bd 66de 1c3e
00000040: 1167 c73d 5bac f7bb ce91 2abc c8c3 74bd
00000050: 0000 0000 0000 0000 3221 123e 7911 063e
00000060: 2534 0fbd 2132 fd3d cd77 1c3e 4e7b a33d
00000070: 5b12 cabb 4cb5 b7bc 0000 0000 e658 fabb
00000080: f7b8 36bb 29f9 f63d f207 15bd 5789 97bd
00000090: e4c6 023e e991 2b3e c078 aabc 91cf e93d
000000a0: b9a6 a8bc a210 283e ec5e 10bc 0000 0000
000000b0: 74c9 c4bb 4541 fc3d 5f02 233e 7d8e e33d
000000c0: bee2 c6bd 93c4 0cbd 24cf 2d3e 5a1a 1c3e
000000d0: 2333 eabc 291a 273e 81f8 223e 6810 b2bc
000000e0: 5b9c 15bd 0000 0000 c77e 093e 56cb 0dbd
000000f0: 0000 0000 e29e 123c 776f fd3d 047a bebd
